dql_random_4x4/saved_model_dql_random_4x4.pt (torch, 8155 bytes, 4 tensors)

fc1.weight f4 [64, 16]
000000 f1 46 25 be 7c e8 a3 bd 3c e6 16 3d 4a aa d9 bd
       -0.16140343 -0.08003327 0.036840662 -0.10628183
000010 48 66 2f be ba 5e 0a bb 1c 0f 37 3e 8d e6 24 bd
       -0.17128861 -0.002111359 0.17876858 -0.040258933
000020 4e b9 38 bc b3 af 10 3e 44 07 48 3f 80 bc 5c 3f
       -0.011274649 0.14129524 0.78136086 0.8622513
000030 78 cc 0c be 4e b9 16 be a0 d4 06 bf 45 50 94 bd
       -0.13749874 -0.14719126 -0.5266819 -0.07241873
000040 a7 db 5f be 08 2d a0 bd 96 63 33 3e 2a ab 78 bd
       -0.21861134 -0.07821089 0.17518458 -0.06071011
000050 c2 f8 f2 3e 8a 99 7e be 35 ee c8 bd 6e 62 f4 bd
       0.47455412 -0.24863258 -0.098110594 -0.119328365
000060 43 a7 81 3e e5 fc a7 be 2a b7 20 3d d0 e5 41 3e
       0.25322923 -0.3281013 0.03923718 0.18935323
000070 15 1d c5 3c 13 fe b2 3d 0f 42 11 3e 46 8d 8c 3e
       0.024061719 0.08739867 0.14185356 0.27451533
000080 4c 76 0d 3f e9 19 c5 3d 64 d5 06 be 4a d3 74 3a
       0.5525863 0.096240826 -0.1316734 0.0009339346
000090 7d c9 aa be 97 f0 fc be 7f 52 60 3e d7 f1 dd 3d
       -0.33356848 -0.49402305 0.2190647 0.10837143
0000a0 27 ae 83 3d 04 53 70 be 29 9e 3a bd df c2 48 3e
       0.06429701 -0.23469168 -0.04556099 0.19605587
0000b0 9d 14 ed 3c a2 5a 78 3d eb 23 f0 bb 4e 0d c7 bc
       0.028940493 0.06063331 -0.0073285005 -0.024298336
0000c0 aa 6b 0f 3e 25 5e 9e 3e e1 90 0b 3f 20 ae e7 3d
       0.14005914 0.30931202 0.5451794 0.113125086
0000d0 02 68 2b 3e f2 e9 2f 3e 53 6c 1b 3f 58 ad 14 3e
       0.16738895 0.17179087 0.60712165 0.1451925
0000e0 48 13 9c bd 32 40 53 bd 63 33 55 3e f7 ef 47 3e
       -0.07620865 -0.051574893 0.20820384 0.19525133
0000f0 c6 4e c1 3b b3 3c 3d be e4 ea 88 be 36 e9 a7 3d
       0.005899283 -0.18480186 -0.26741707 0.08198778
000100 37 ca 8c bd e1 eb 7b be 6a b3 e2 bc 94 8c f7 bb
       -0.06874507 -0.246017 -0.027673442 -0.0075546
000110 3b 8f 2c 3d 0b c1 24 be 8e bd ba be 6f 88 90 bd
       0.042128783 -0.16089265 -0.36472744 -0.07057273
000120 4b b1 f8 bd f7 35 52 3f 69 97 4e 3e 3d 37 77 be
       -0.12143191 0.82113594 0.20174946 -0.24142165
000130 a5 89 fb bd f5 db 80 bd f9 93 49 3d 42 b0 13 bd
       -0.12282113 -0.062919535 0.049213383 -0.036056764
000140 b9 db f2 3e 4e 39 98 be ad 13 b8 3d 23 67 34 bd
       0.4743326 -0.2973122 0.08988128 -0.04404367
000150 d3 01 0f bf 60 ca 96 bc 70 53 23 be da 58 10 bd
       -0.5586216 -0.018407047 -0.15949798 -0.035240985
000160 d9 1b 04 bb 5d d1 e3 3d f6 48 27 be 56 0f 47 be
       -0.00201582 0.11123917 -0.16336426 -0.19439444
000170 de 29 b8 3e 31 d9 27 3d 72 5a 25 3d 69 a1 8b 3d
       0.35969442 0.040978614 0.04036946 0.06817896
000180 27 98 f4 3e b4 1f 96 3e d7 b7 2c 3c 81 c5 6e bc
       0.47772333 0.29321063 0.010541878 -0.014573456
000190 60 cf 00 3f 8a e6 cc 3d 67 5a 86 3e ce cd 67 3e
       0.5031643 0.10004909 0.26240847 0.22637102
0001a0 20 e5 63 bd 46 2f 33 be f3 93 b5 bd e3 e9 8a bb
       -0.055638433 -0.17498502 -0.0886611 -0.0042393073
0001b0 e0 ea f6 3c 25 da b0 3e 73 65 c6 bd e7 02 9a bd
       0.030141294 0.3454143 -0.09687319 -0.07520085
0001c0 ab e5 2f 3e d8 28 76 bd 03 01 d9 3d b1 30 4d 3e
       0.17177455 -0.060097545 0.10595896 0.20038106
0001d0 b6 67 04 3e 4a e4 ed 3d 8c ad 2d 3e 49 3e 16 3e
       0.12930188 0.11615808 0.16960734 0.14672197
0001e0 fd c0 38 3e 21 f1 82 3e 31 fc 90 3e 76 00 b6 3e
       0.18042369 0.25574592 0.28317407 0.35547227
0001f0 c8 41 3d 3e 7a 79 83 3d 0b de 46 3f e8 91 c8 bb
       0.18482125 0.06419654 0.7768256 -0.006120909
000200 32 b1 35 be 97 05 05 be 16 b1 bf bb 42 09 a3 bd
       -0.17743376 -0.12990414 -0.0058499677 -0.0796075
000210 e3 7d d2 3d d1 3c 52 bd 62 8e 57 be 7d 59 97 bd
       0.10277917 -0.05132753 -0.21050408 -0.073901154
000220 80 21 2c 3e fd c9 48 3e 5c c7 5e 3d 53 01 15 be
       0.16809654 0.19608302 0.054389343 -0.14551286
000230 2a 16 06 3e 9f 38 19 3f 89 bb 22 3f a1 33 93 3d
       0.13094392 0.5985202 0.63567406 0.07187582
000240 af ad 53 be 8a 00 9e be 05 6c b1 3d 4a 8d 50 3d
       -0.20671724 -0.30859786 0.08663181 0.050915994
000250 c7 cf 47 be 53 28 3f 3e ad a3 08 be 56 48 29 bd
       -0.19512855 0.18667726 -0.13343687 -0.04132875
000260 59 e7 02 3d 4a c3 0c bf 43 9d 96 be b3 da 06 be
       0.03195891 -0.5498549 -0.29416856 -0.13169365
000270 90 fd c4 bd 17 de 74 3d c8 2d bb be d9 9d eb 3c
       -0.09618676 0.059782114 -0.36558366 0.028761791
000280 e6 93 b8 bd 4a 88 fb bd a8 fd 14 bd 50 d1 85 3d
       -0.090125844 -0.122818545 -0.036374718 0.06534064
000290 28 71 e7 bd b4 d9 dd be bb b8 63 be 35 13 18 be
       -0.1130088 -0.43330157 -0.22238438 -0.14851077
0002a0 71 a3 08 be d4 82 1e be 5a 18 22 bf 80 6f bb be
       -0.13343598 -0.15479594 -0.6331841 -0.36608505
0002b0 cb 48 bd bd 48 ae 5a be 9f dc 3b be 9c bc 25 bd
       -0.092424 -0.21355546 -0.18345879 -0.040463075
0002c0 f3 eb 03 3c 1e 55 2e be 37 1e 10 be 94 83 d2 3e
       0.00805186 -0.17024657 -0.14074026 0.4111601
0002d0 45 e3 35 bc 00 c6 06 bd 70 4a 2c be 1d 7a 23 3e
       -0.011101549 -0.03290367 -0.1682527 0.15964551
0002e0 11 fa a7 bc 74 89 35 3e 03 18 98 3e eb 95 8b 3e
       -0.020504983 0.17728215 0.2970582 0.27262816
0002f0 35 66 9f 3d 48 8d 9b bd 6d 73 17 3e 8f 48 6c 3e
       0.07783166 -0.07595307 0.14790125 0.23074554
000300 91 07 6e be 49 fc 3c be 36 64 1c be ed 82 e0 3d
       -0.23245074 -0.18455614 -0.15272602 0.10962472
000310 19 84 d5 bc 0f 36 81 be ae 59 f7 be 83 a0 92 3e
       -0.026063966 -0.25236556 -0.48310608 0.28638086
000320 70 de 38 3d 13 a4 00 3e c3 14 cf bd 47 93 1e bf
       0.045134008 0.1256259 -0.10111382 -0.6194348
000330 49 7d 8e be bb d2 25 be d0 06 44 be fa b1 aa be
       -0.2782996 -0.16193669 -0.19143224 -0.3333891
000340 15 a5 48 be 88 a1 4f bd ab 4f d7 3c 40 1a 7e 3d
       -0.19594224 -0.050691158 0.026283106 0.062036753
000350 b2 4a 67 bd c6 3b 6a 3e 12 84 40 3e 19 d7 09 3d
       -0.05646772 0.22874364 0.18800381 0.0336524
000360 a1 e0 81 bc b2 20 e7 bd e3 f8 f5 3e f4 7a 0c 3d
       -0.015854182 -0.11285533 0.48041448 0.034296945
000370 4a aa 63 bd da f0 85 be 19 74 6b 3f cd 2c e5 bd
       -0.055582322 -0.26160318 0.91974026 -0.11190186
000380 c1 85 8a be 49 95 f0 3e af b1 c4 3c 1b ad 03 bf
       -0.2705517 0.46988896 0.024010507 -0.51436013
000390 8e 62 b0 bd 48 14 f7 bd 48 bf 95 be 44 f0 c2 bc
       -0.08612548 -0.12064415 -0.292475 -0.023796208
0003a0 f1 9d 11 be 7c bd 88 bd 4a 1d c8 3d 78 b4 2d bd
       -0.14220406 -0.06676766 0.097712114 -0.042408437
0003b0 fe 72 9d bd 67 6f c5 bc 44 77 8a 3d 80 33 ce bd
       -0.07687949 -0.024100972 0.06761029 -0.100684166
0003c0 20 ac 81 3c 18 18 e7 bd 64 52 62 3f e2 05 8d be
       0.015829146 -0.112838924 0.8840697 -0.2754355
0003d0 a8 e4 97 3c 67 24 c9 3d c3 85 f9 3e d0 e9 87 be
       0.018541649 0.09821396 0.48734865 -0.26545572
0003e0 f6 ad 96 bb 8f e0 6e bc 5f cf a3 bd 37 dc e5 bd
       -0.0045983745 -0.014579906 -0.07998537 -0.11223643
0003f0 f6 0c 90 bd fb 03 1f be 53 fe d3 bd 48 86 81 be
       -0.07033722 -0.15528862 -0.10351243 -0.2529776

fc1.bias f4 [64]
000000 81 fb 48 3e 1e 8c 36 be d6 53 49 be 50 38 f0 bc
       0.19627191 -0.17826888 -0.19660887 -0.029323727
000010 f2 26 05 be 7b 15 86 be 66 0c d0 bc 50 91 7c 3e
       -0.13003138 -0.26188263 -0.025396537 0.24664807
000020 af 11 03 3e 78 4a c1 bd 5f 9e 73 be 27 5a 62 be
       0.12799715 -0.09438032 -0.23790883 -0.22104703
000030 9f 55 94 be 80 35 5d be cd 6c 19 3e 22 f3 21 be
       -0.28971574 -0.2160244 0.1498291 -0.15815404
000040 7d 3e 47 be 93 25 85 be 82 ce c4 bd 56 aa 7b be
       -0.19457431 -0.2600523 -0.09609701 -0.24576697
000050 a5 a2 99 3d fb 44 e0 be 49 a4 9e 3b 42 f0 32 be
       0.07501725 -0.43802628 0.0048413617 -0.17474464
000060 05 4a 4e bc 10 e3 30 be 7c 02 36 be cb 26 9e be
       -0.01259089 -0.17274117 -0.17774385 -0.30888972
000070 58 7a c2 be 32 b5 d8 be 79 8d 2e bc 38 61 de be
       -0.37983966 -0.4232574 -0.010653847 -0.43433547
000080 ee d2 b2 3e d0 b4 7e 3e 0d 91 45 be 37 03 5c be
       0.34926552 0.24873662 -0.19293614 -0.21485601
000090 40 6b e9 3d fc ce 6c be 68 b3 14 bd 04 d0 5d bd
       0.113974094 -0.23125833 -0.036303908 -0.054153457
0000a0 0a b0 3a be e8 a1 61 3e dd e9 22 3d 32 6c 2c be
       -0.18231216 0.22034419 0.03977381 -0.16838148
0000b0 6a 39 f8 bd 02 10 e3 bd 89 2c 58 be 0a 01 3f be
       -0.12120326 -0.110870376 -0.21110739 -0.1865274
0000c0 f8 4a b0 3d 29 7a 75 3a d5 a8 1a 3e b8 f5 d7 bd
       0.08608049 0.00093642116 0.15103467 -0.10544914
0000d0 d4 d7 d0 bc 0a 92 89 3c 55 f1 8d bb 10 78 a7 be
       -0.02549354 0.01679327 -0.0043317475 -0.32708788
0000e0 1a ae 5c be 02 3a 88 bd e7 65 4f bc 49 f0 9b be
       -0.2155079 -0.06651689 -0.012658573 -0.3045676
0000f0 da 19 2c 3e a7 ba ef 3c 6b 80 9c be d3 be 37 3e
       0.16806737 0.029263807 -0.30566725 0.17943887

out.weight f4 [4, 64]
000000 05 ae 73 3e 16 1e b5 3d c1 45 ac bd f6 83 3c 3e
       0.23796852 0.08843629 -0.08411742 0.18409714
000010 52 fb 99 bd ca d9 6c bc f5 4e 03 be d1 87 3e be
       -0.07518639 -0.014456222 -0.12823088 -0.18606497
000020 c0 67 ef 3d cd c8 ce bd 9d 01 f8 bd c3 82 f9 3c
       0.116897106 -0.100968935 -0.12109683 0.03045786
000030 5d 60 89 be 3f d5 6a be 8d 26 41 3d 4e 00 15 3d
       -0.26831332 -0.2293291 0.047155906 0.036377244
000040 0b 84 e5 3d 56 67 2c be 52 60 50 3e 59 c3 50 3c
       0.11206826 -0.16836295 0.20349243 0.012741887
000050 81 ee ff bc a1 92 3e 3e e2 17 94 3e b3 aa 54 3d
       -0.031241657 0.18610622 0.2892447 0.051920604
000060 ff 24 52 be 34 b4 e2 bd 76 5b fd 3d 3f a1 be bd
       -0.20521925 -0.11069527 0.123709604 -0.09308099
000070 fa 3d 00 bf 4f fd 03 be 27 81 09 3e 99 74 18 bd
       -0.5009457 -0.12889598 0.13428174 -0.03722057
000080 50 7a 86 3d 3f 2a cb 3d 10 26 b0 3d 5a e1 07 3d
       0.06566298 0.09920167 0.0860101 0.033173896
000090 36 46 35 3d bc 15 b2 bb 4b ab 46 3d 95 26 7b 3d
       0.04425641 -0.00543472 0.0485032 0.06131609
0000a0 a8 50 bb bc 2c b9 12 3e 2f c2 19 3d d3 dd a0 3d
       -0.022865608 0.1432845 0.037538704 0.078548096
0000b0 84 3c 6c bd 93 c1 65 3e d9 b6 c1 3e 0d e2 2f 3e
       -0.0576749 0.22437124 0.37834814 0.17176075
0000c0 6a d5 c8 3d dd ab 24 3e 95 dd 01 be 0c ed 1a be
       0.098063305 0.16081186 -0.12682183 -0.15129489
0000d0 80 44 a9 3d 6b a7 98 3d 11 fe 82 ba d7 17 e5 3d
       0.082650185 0.074538074 -0.000999393 0.11186188
0000e0 56 d7 dc 3d 5c 73 10 bc 48 78 f3 3d 7f 8e 40 3c
       0.107832596 -0.008816566 0.11888176 0.011752724
0000f0 b9 46 20 3e f0 ce ae 3c 0f 0e 15 3e d2 c6 17 3e
       0.15651979 0.02133891 0.14556144 0.14821938
000100 87 0b 96 3e 46 72 20 bc c7 3d 47 be 79 4c 24 3e
       0.2930567 -0.00979287 -0.1945716 0.16044797
000110 99 04 3e be 6b bf 0d be 7a f1 5e bd 5f 7c c3 bd
       -0.18556441 -0.13842551 -0.05442951 -0.09545206
000120 fb b9 77 3e b4 c3 ce bd 35 5b 18 be b7 25 b1 bb
       0.2419204 -0.10095921 -0.14878543 -0.0054061073
000130 b4 58 82 be 2e 21 96 3e c9 4a c5 3d 89 df 2a 3e
       -0.254583 0.2932219 0.09633405 0.16686834
000140 c2 67 29 3e a9 0e fe bd 49 b0 f1 3e 74 ec 47 bf
       0.16543487 -0.1240514 0.47204807 -0.78095174
000150 f5 fc e3 3e 92 86 13 3f 78 01 69 3e f0 bf 1c 3f
       0.44528928 0.57627213 0.22754467 0.61230373
000160 6c 11 9e 3e e4 0a 42 bd 8a fb 8e be 64 c2 8e be
       0.30872667 -0.047373667 -0.27926284 -0.27882683
000170 f5 41 9a 3d a3 dd a8 bf 62 17 e8 bc 1b e3 95 be
       0.075321116 -1.3192638 -0.028331462 -0.2927483
000180 ac ca 86 3e d0 82 36 bc da fd a5 3d 48 ca f6 3c
       0.263265 -0.011139587 0.08105059 0.030125752
000190 dc 63 0a 3d 30 4f 5a be 8a 17 3c be b5 90 c2 bd
       0.03378664 -0.2131927 -0.18368354 -0.09500257
0001a0 22 c7 1b bf 57 15 8f 3d 88 3a 45 be f7 33 02 be
       -0.6085073 0.06986492 -0.19260609 -0.12715136
0001b0 1c f9 8a 3e df 7d b0 3d b8 f5 df 3e 3f f9 88 3e
       0.2714318 0.08617758 0.43742156 0.2675266
0001c0 71 15 47 3e 7e 86 d4 3d b7 97 99 be 4b c6 a7 be
       0.19441773 0.10377215 -0.29998562 -0.32768473
0001d0 cd 63 b8 bd dd b1 17 3e 88 1f 0f 3f 01 a4 70 be
       -0.090034105 0.14813943 0.5590749 -0.23500063
0001e0 84 c6 49 3e 6b 62 27 be 41 e3 84 3d c3 99 a1 3e
       0.19704634 -0.16346137 0.06488658 0.31562623
0001f0 90 42 d1 3d 97 6c 64 bd 3b 67 4f bf 5a 4b 17 3e
       0.10217774 -0.05576762 -0.8101689 0.14774838
000200 ac 44 aa 3e 05 bd 46 3e 95 56 8a 3c f9 86 2f 3e
       0.33255517 0.19408043 0.016886989 0.17141332
000210 07 d7 1b 3e fc bb 38 be 7d d8 a9 bd 11 84 0b be
       0.15218745 -0.1804046 -0.08293245 -0.13624598
000220 c3 66 56 3d 0a 2a 9d bc 35 69 67 be 33 e7 f2 bd
       0.052344095 -0.019185085 -0.22598727 -0.11860504
000230 20 b8 b6 be 95 ed 88 3e c8 cc f9 bd 6e 3b 0d bf
       -0.3568735 0.2674376 -0.12197262 -0.5516881
000240 bd 2f 54 3e e0 2f 0f bf cd 91 8f 3e fa 11 20 3e
       0.20721336 -0.55932426 0.28040925 0.15631858
000250 c3 a2 0d be e5 b1 c6 3e 26 41 a7 3e ea da d0 be
       -0.1383162 0.38807598 0.32666892 -0.40792018
000260 51 f9 73 3f 40 93 99 3c 89 79 c3 be 17 87 f9 3d
       0.953023 0.018746972 -0.3817866 0.121839695
000270 01 32 26 be 04 eb 67 3d ff 6d a6 3e 56 03 44 bf
       -0.16230012 0.056620613 0.32505795 -0.7656759
000280 da 4f 3a 3e 10 e0 2f 3e 40 55 2c 3c cd 5b 18 3f
       0.18194523 0.17175317 0.010518372 0.59515077
000290 d8 d3 20 be 8b d2 6d be a5 46 95 3e e4 88 5b 3e
       -0.15705812 -0.23224847 0.2915546 0.21438938
0002a0 b2 85 36 3e 2a 4b 11 3e 4b db 5a 3d 3c bc 1b 3e
       0.17824438 0.14188829 0.05343179 0.15208524
0002b0 df 4e 7a bf 38 8d f3 3e 4b 76 19 3f c6 ce c3 3a
       -0.977766 0.4756868 0.59946126 0.0014938943
0002c0 d5 12 04 bd 43 e8 42 3e cf 9c 77 be ed 1e 81 be
       -0.032244522 0.19033913 -0.24180911 -0.25218907
0002d0 2a 90 7d bd 6b e6 b5 bc 6e c1 e2 3d cf 35 23 bd
       -0.061905064 -0.022204598 0.1107205 -0.039846238
0002e0 0b 9b df 3d 04 1f b3 be 17 23 2a 3e be 31 d5 be
       0.10918244 -0.349846 0.16614948 -0.41639513
0002f0 45 7e 85 3e 62 44 7e bc 62 c8 80 3e 04 57 39 3e
       0.26072899 -0.015519233 0.2515288 0.180996
000300 1d 90 40 3e fb 38 db 3d bd 4b 5e bd cd dc 72 3e
       0.18804975 0.107042275 -0.05427145 0.23717041
000310 68 97 53 bd 26 65 00 3d 2e 24 0d be fe bc 14 be
       -0.051658064 0.031346463 -0.13783333 -0.1452522
000320 23 1e 1d 3d 04 c4 c0 bd 48 20 0c be 56 3e 58 3d
       0.03835882 -0.09412387 -0.1368419 0.052793823
000330 4b e2 3b be 2c 98 1d 3f cc 14 d9 3d a3 14 7c 3d
       -0.18348043 0.6156032 0.1059967 0.06154312
000340 60 ab 03 3e d5 11 3e be 6d f3 90 3e 02 4d af bb
       0.12858343 -0.1856149 0.2831072 -0.005349756
000350 3f a6 f6 3c 69 a3 5e bf 81 33 7e 3e 5a 28 21 bb
       0.03010857 -0.86968094 0.24824335 -0.0024590702
000360 7b fa da 3d 1c 46 25 bd 53 da c5 3d f1 d5 5b bd
       0.106923066 -0.040350065 0.09660783 -0.053670827
000370 4c ea 7b 3d 92 17 a3 3d cf 7d d4 3d 71 2b bc bd
       0.06150274 0.0796348 0.103755586 -0.09187973
000380 4f eb dd 3c 87 a3 ac 3d 50 ff a2 bc 63 f3 3f 3b
       0.027089743 0.08429628 -0.019897133 0.0029289357
000390 b2 77 41 3d b1 98 29 3d 13 15 4d bd 31 21 4a 3d
       0.04723329 0.041405383 -0.050068926 0.04934806
0003a0 ac 6c b3 bd 64 39 0a 3d 02 0d 43 3d 1c 28 93 3d
       -0.08760962 0.03374614 0.047619827 0.07185385
0003b0 7a 35 42 bd 37 26 0d be 28 87 05 3f 42 ac 13 3e
       -0.04741428 -0.13784109 0.5215936 0.1442118
0003c0 87 bf 90 3d 5d 52 33 3e 47 d5 79 be a4 c6 0a be
       0.07067781 0.17511888 -0.24397765 -0.13552338
0003d0 b0 8a d8 3d d1 06 e2 3d 60 d7 3b 3e d9 c3 49 3d
       0.105733275 0.110364564 0.18343878 0.04925904
0003e0 2a f7 90 bf f5 b1 ac bc 36 ad 61 3d b1 3c 2f 3d
       -1.1325428 -0.02108095 0.055096827 0.04278249
0003f0 31 e7 06 3d 91 c7 86 bd d6 49 e8 3d 97 86 0c 3e
       0.032935325 -0.06581033 0.11342208 0.13723217

out.bias f4 [4]
000000 a5 8b e0 3b 74 db 85 3e 73 53 8f bc 55 cb 52 3d
       0.0068525844 0.26143992 -0.017495846 0.051463444
