dql_random_8x8/saved_model_dql_random_8x8.pt (torch, 73435 bytes, 4 tensors)

fc1.weight f4 [256, 64]
0	0x3eff1774	0.4982258
1	0x3f69ba81	0.9130021
2	0xbf5ff088	-0.87476397
3	0x3e9b796d	0.30366078
4	0xbdeaf361	-0.11472202
5	0x3f901d3f	1.1258925
6	0x3f9cfc80	1.2264557
7	0xbe8ea1f8	-0.27857947
8	0x3f8a9fd7	1.0830029
9	0x404717d1	3.1108286
10	0xbde0b950	-0.109728456
11	0x3ec15a24	0.37764084
12	0x3ed7a953	0.42121372
13	0xbf142f19	-0.57884365
14	0x3e4b25d6	0.19838652
15	0x3ea7be1d	0.32762232
16	0x3feabc30	1.833868
17	0x3fafee6c	1.3744636
18	0x3f9b6a64	1.2141843
19	0x3cb7fd15	0.022459546
20	0x3f1f4464	0.6221373
21	0x3f956b1a	1.167331
22	0x3f36c09b	0.7138764
23	0x3f2ac0d3	0.66700476
24	0x400541c0	2.082138
25	0x40191df7	2.392454
26	0xbf866034	-1.0498109
27	0xbf428553	-0.75984687
28	0x3d4910e0	0.04908836
29	0xbecb6155	-0.39722696
30	0x3f8f1f94	1.1181512
31	0xbeb35a02	-0.35029608
32	0xbf6239b4	-0.883693
33	0x3f722cb9	0.9459949
34	0x3f802bcc	1.0013366
35	0xbf363d44	-0.71187234
36	0x3f965beb	1.1746801
37	0xbfb2880b	-1.3947767
38	0xbeb360cf	-0.35034797
39	0x3d99de78	0.07513136
40	0xbfb5572d	-1.4167229
41	0x3d64881e	0.055793874
42	0xbf8735b9	-1.056327
43	0x3fa6a414	1.3018823
44	0x3f9a5db6	1.2059848
45	0xbf7eca46	-0.99527395
46	0x3f3cbb9b	0.73723763
47	0xbe9c1176	-0.30482072
48	0x3e42d920	0.19028139
49	0xbf2fc6c6	-0.6866268
50	0x3e8cdb6c	0.27511156
51	0x3df84b49	0.121237345
52	0x3eeacd07	0.45859548
53	0x3f8598b4	1.0437226
54	0x3f2ee0f5	0.6831201
55	0xbfa7d14f	-1.3110751
56	0xbd2e69e0	-0.04258144
57	0xbf4914d6	-0.7854742
58	0x3f883021	1.0639688
59	0xbf4a655b	-0.79060906
60	0x3e08e67f	0.13369177
61	0xbe54c045	-0.2077647
62	0x3fa0e660	1.2570305
63	0xbf6d2bf7	-0.9264521
64	0x3edaf4f3	0.42765006
65	0x3f192909	0.5982824
66	0x4022ca22	2.5435872
67	0x3fd1b84a	1.6384366
68	0x3f8a9ba7	1.0828751
69	0x3f985c6b	1.1903204
70	0x3f095473	0.53644484
71	0xbe7fcea5	-0.24981172
72	0xbefa5cb5	-0.48898855
73	0xbe7b066e	-0.24514171
74	0xbf712afe	-0.94206226
75	0x3f650cd0	0.89472675
76	0xbef70093	-0.48242626
77	0x3f88fd4d	1.0702301
78	0xbede36c1	-0.4340115
79	0xbf353276	-0.7078012
80	0xbf13d865	-0.57752067
81	0xbe60908e	-0.21930143
82	0xbe42ff7f	-0.19042777
83	0x3eb7133a	0.35756856
84	0x3f297ace	0.6620301
85	0x3f063057	0.5241751
86	0x3e8a326d	0.26991597
87	0x3f18fb57	0.59758514
88	0x3f061f85	0.52391845
89	0x3ef639ba	0.48090917
90	0x3f982a07	1.1887826
91	0x3d207a1a	0.039178945
92	0x3f3f0c3a	0.7462803
93	0x3e084105	0.13306053
94	0x3eb67e7f	0.35643384
95	0x3d073241	0.03300691
96	0x3f032b4d	0.51237947
97	0x3e45e80c	0.193268
98	0x3ed59ed5	0.41722742
99	0xbf39c061	-0.7255917
100	0x3ed6f753	0.41985568
101	0x3f5ad31e	0.8547839
102	0x3e88f8b1	0.26752236
103	0x3fbda362	1.4815485
104	0xbe91eae4	-0.2849952
105	0x3ff92f44	1.9467549
106	0x3f1027bb	0.56310624
107	0x3eadbf62	0.33935076
108	0x3f48e242	0.7847024
109	0x3d935b31	0.07195128
110	0x3fe6af0a	1.8022168
111	0x3f3449b2	0.7042495
112	0x3e77f07c	0.24212831
113	0xbebd1944	-0.3693334
114	0x3e1ed633	0.15511398
115	0x3e90b75f	0.282649
116	0x3c3c44c2	0.0114910025
117	0xbeb80504	-0.35941327
118	0x3f707407	0.93927044
119	0xbea5f493	-0.32413158
120	0xbed3eacf	-0.41390082
121	0xbdd05f1f	-0.10174393
122	0x3e35d2e0	0.17756224
123	0xbeb1d01c	-0.34729087
124	0x3f5e451b	0.86824197
125	0xbd9bb2f0	-0.07602489
126	0x3fed7aa0	1.8553047
127	0xbf477536	-0.77913225
128	0x3db8bad8	0.090200126
129	0x3edd84cb	0.43265375
130	0xbe92598c	-0.28583944
131	0xbefe7562	-0.4969893
132	0xbeec64f4	-0.4617077
133	0x3f4ec5a2	0.80770314
134	0x3f385725	0.7200797
135	0x3e599095	0.2124656
136	0x3faa8ebb	1.3324808
137	0xbe88ddd5	-0.26731744
138	0xbf3be3cb	-0.7339446
139	0xbf2ed030	-0.6828642
140	0x3f764335	0.961963
141	0x3f60d096	0.87818277
142	0x4030c944	2.7622843
143	0x3f4772a6	0.77909315
144	0x3fa51de3	1.2899746
145	0xbeaea99e	-0.34113783
146	0xbd73e395	-0.05954321
147	0xbd3924fe	-0.045201294
148	0xbf0ddcfa	-0.5541531
149	0x3e085545	0.13313778
150	0x3fbc8086	1.4726722
151	0xbf0beb0a	-0.54655516
152	0x3f219fc1	0.6313439
153	0x3e73d454	0.23811466
154	0x3f5ef387	0.87090343
155	0x3c4ecbd8	0.012621842
156	0x3ebf9f74	0.3742634
157	0x3e14c1d4	0.14527065
158	0x3f5298b6	0.8226427
159	0xbe108f86	-0.1411725
160	0xbe26cda0	-0.16289377
161	0x3f27e795	0.6558774
162	0x3fde99cd	1.7390686
163	0x3e772604	0.24135596
164	0x3b837960	0.0040122718
165	0x3efd44dd	0.494666
166	0xbe8dc293	-0.2768751
167	0xbef9b410	-0.4877019
168	0x3fb78ae1	1.4339257
169	0x3e999067	0.29992983
170	0x3e800377	0.25002643
171	0xbeba0970	-0.36335325
172	0x3f8155ae	1.0104272
173	0xbdc9801f	-0.0983889
174	0x3f1b49f3	0.6065971
175	0xbf106dad	-0.5641735
176	0xbe6c4a42	-0.23075202
177	0xbf1ab6ff	-0.6043548
178	0x3f4bd53f	0.7962226
179	0xbf9c640c	-1.2218032
180	0x3d9687bc	0.07350108
181	0x3faf606f	1.3701304
182	0xbef11b04	-0.47090924
183	0x3de3c20e	0.11120997
184	0x3f9e09e3	1.2346767
185	0x3f3b6a85	0.7320941
186	0xbf4c8a0e	-0.79898155
187	0x3d6eb31d	0.058276284
188	0xbd7c5399	-0.061603162
189	0x401e1be9	2.4704535
190	0x3ebcf286	0.3690378
191	0xbfaf9c29	-1.3719531
192	0xbf98ebee	-1.1947
193	0xbf4dd317	-0.8040022
194	0xbed89a3f	-0.4230518
195	0x3ed66b88	0.41878915
196	0x3eb5588a	0.35419112
197	0x3f1f0a48	0.6212506
198	0xbedf815a	-0.43653375
199	0x3f16cd56	0.5890707
200	0xbf96df26	-1.178685
201	0xbd7fff3f	-0.06249928
202	0xbfae962e	-1.3639581
203	0x3f77ebf6	0.9684442
204	0x3ec95294	0.39320815
205	0x3f09988d	0.537484
206	0x3f98993e	1.1921766
207	0x3f7f21f1	0.99661165
208	0x3d000d7f	0.03126287
209	0x3ee50e97	0.44737694
210	0x3f9cc371	1.2247144
211	0x3df9afdd	0.121917464
212	0x3decd1ec	0.11563477
213	0x3f2b9f28	0.6703973
214	0xbee87cb5	-0.45407644
215	0xbe78d09d	-0.2429833
216	0x3edfb443	0.43692216
217	0x3f67edab	0.9059703
218	0xbe6cdc4b	-0.2313091
219	0x3eb9a686	0.3625986
220	0x3f6fe274	0.93704915
221	0x3e66af70	0.22527862
222	0x3f040b9b	0.5158021
223	0xbe975e56	-0.2956416
224	0x3fa48909	1.285432
225	0x4001b71d	2.0268013
226	0x3f15d377	0.58525795
227	0x3d2278bc	0.039665923
228	0x3fbf4f85	1.4946142
229	0xbed40c2b	-0.41415533
230	0x3ec8e269	0.39235237
231	0x3f49b4a2	0.7879125
232	0x3d64d959	0.05587134
233	0x3fb837fe	1.4392087
234	0x3efdbf93	0.49560222
235	0x3ef204e0	0.47269344
236	0x3bbb2617	0.005711328
237	0x3e565cf0	0.2093389
238	0x3f55a91b	0.8346116
239	0x3e236f33	0.15960388
240	0x3fa8a7ee	1.3176248
241	0x3f48ffe0	0.78515434
242	0x3fda0157	1.7031659
243	0xbea992a7	-0.331197
244	0xbd9215eb	-0.07133087
245	0x3eb1b3cd	0.3470749
246	0x3fc708c7	1.5549554
247	0xbf1a88dd	-0.60365087
248	0xbf4e39dd	-0.8055704
249	0xbeeaa7a9	-0.4583104
250	0xbef60c43	-0.4805623
251	0xbf4db735	-0.80357677
252	0x3d53bb4f	0.051692303
253	0x3f093025	0.5358909
254	0x3f903c83	1.1268467
255	0xbf55963e	-0.83432376

fc1.bias f4 [256]
0	0xbf4a4e8f	-0.7902612
1	0xbf4188f5	-0.75599605
2	0xbfadf13c	-1.3589244
3	0xbf6ffe0e	-0.9374703
4	0xbf760329	-0.9609857
5	0xbe145e17	-0.14489017
6	0xbec78e6d	-0.3897585
7	0xbedc9ad9	-0.4308689
8	0xbf7c2b21	-0.9850331
9	0xbfa2870f	-1.2697467
10	0xbf3eac4a	-0.7448164
11	0xbf629e0c	-0.8852241
12	0xbfaa2044	-1.3291097
13	0xbf8a7497	-1.081683
14	0xbf5e3092	-0.8679286
15	0xbf0019af	-0.5003919
16	0xbf678e2b	-0.90451306
17	0xbf415d48	-0.7553296
18	0xbf8d7e6f	-1.105421
19	0xbe9a9e84	-0.30199063
20	0xbf7b74f8	-0.98225355
21	0xbf262688	-0.64902544
22	0xbe185b7c	-0.14878649
23	0xbf916dba	-1.1361611
24	0xbf839732	-1.0280516
25	0xbf056ff9	-0.5212398
26	0xbf78500a	-0.9699713
27	0xbf321a17	-0.6957106
28	0xbf90042f	-1.1251277
29	0xbf233b11	-0.63762003
30	0xbfae803f	-1.3632888
31	0xbf83ee8f	-1.0307177
32	0xbf848aed	-1.0354897
33	0xbf3062af	-0.6890058
34	0xbf3ee4bc	-0.7456777
35	0xbf4df649	-0.80453926
36	0xbf4e89a4	-0.8067877
37	0x3e84465a	0.25834924
38	0xbf2d28f4	-0.67640615
39	0xbeabe2cc	-0.3357147
40	0x3ee053e2	0.43813998
41	0xbf30134a	-0.6877943
42	0xbf80e915	-1.0071131
43	0xbf855ad9	-1.041835
44	0xbf8cb7a2	-1.099354
45	0xbe6fe211	-0.23426081
46	0xbf3afaa1	-0.7303868
47	0xbf5da242	-0.8657571
48	0xbf4707cf	-0.7774629
49	0xbf749f73	-0.955558
50	0xbf8fb009	-1.1225597
51	0xbf9188fe	-1.1369932
52	0xbf48e7f8	-0.78478956
53	0xbf844429	-1.0333301
54	0xbf72cdcc	-0.9484527
55	0xbfa26cae	-1.2689416
56	0x3cb11fbd	0.02162158
57	0xbf8784f3	-1.0587448
58	0xbf7290e4	-0.94752336
59	0xbf3638b6	-0.71180284
60	0xbeaa4a6d	-0.33259907
61	0xbf70cfce	-0.94067085
62	0xbe730398	-0.2373184
63	0xbf5db41f	-0.8660297
64	0xbfa15c68	-1.2606325
65	0xbf809eda	-1.0048478
66	0xbfac0cbe	-1.3441389
67	0xbf9f0c8b	-1.2425703
68	0xbf966319	-1.1748992
69	0xbf3e7ae4	-0.74406266
70	0xbedd7cf7	-0.43259403
71	0x3f33c93c	0.70228934
72	0xbf4e956f	-0.8069677
73	0xbf9f3e94	-1.2440972
74	0xbf5894db	-0.84602135
75	0xbf848383	-1.0352634
76	0xbf64fe7f	-0.8945083
77	0xbed6b0ae	-0.4193167
78	0xbf343bc7	-0.70403713
79	0xbe3c4072	-0.18383959
80	0xbf4a4d13	-0.79023856
81	0xbf3f98d1	-0.74842554
82	0x3e7d869f	0.24758385
83	0xbf880eed	-1.0629555
84	0xbf6cd149	-0.92506844
85	0xbf8ab8fe	-1.0837705
86	0xbf4c67b8	-0.7984576
87	0xbf74c8e8	-0.9561906
88	0xbfa042d8	-1.2520399
89	0xbf4c9edc	-0.799299
90	0xbf0929e2	-0.53579533
91	0xbf3ae15e	-0.73000133
92	0xbef04fd4	-0.46935904
93	0xbf1f23a1	-0.6216374
94	0xbf7daa77	-0.99088234
95	0xbf5ae7ed	-0.8551014
96	0xbe901357	-0.28139755
97	0xbeaffe96	-0.3437392
98	0xbee357f6	-0.44403046
99	0xbf90ef62	-1.1323054
100	0xbef7c115	-0.48389497
101	0xbf7dcdae	-0.9914197
102	0xbf2e2e15	-0.68039066
103	0xbf620eac	-0.8830364
104	0xbf790efa	-0.9728848
105	0xbf492da9	-0.78585297
106	0xbf819a7b	-1.0125269
107	0xbf3bb450	-0.7332201
108	0xbf156637	-0.5835909
109	0xbf3537d3	-0.70788306
110	0xbf835818	-1.0261259
111	0xbe292917	-0.16519581
112	0xbf80f488	-1.0074625
113	0xbf67150f	-0.9026651
114	0xbf873ca3	-1.056538
115	0xbe7c4bcc	-0.24638289
116	0xbeee46a1	-0.4653826
117	0xbf938aae	-1.1526697
118	0xbeea35e0	-0.45744228
119	0xbf3257bf	-0.6966514
120	0xbf443df3	-0.76657027
121	0xbf18e591	-0.5972529
122	0xbf5adfcc	-0.85497737
123	0xbf0e8cbe	-0.55683506
124	0xbf5abdb7	-0.8544573
125	0xbf8d7fbf	-1.105461
126	0xbf5fa2f0	-0.87358
127	0xbf8c1b9e	-1.0945928
128	0xbf213187	-0.629662
129	0xbeb8412e	-0.35987228
130	0xbed15830	-0.40887594
131	0xbd1babb8	-0.03800556
132	0xbf816526	-1.0108993
133	0x3ee470a3	0.44617185
134	0xbf5ad74f	-0.85484785
135	0xbf3a0735	-0.7266725
136	0xbf5d6567	-0.8648285
137	0x3f19fbe2	0.6014997
138	0xbf6e09d1	-0.9298373
139	0xbe346876	-0.17617974
140	0xbf39850d	-0.72468644
141	0xbfab32bd	-1.3374859
142	0xbf5a8782	-0.8536302
143	0xbf65ba33	-0.8973724
144	0xbf49c2d0	-0.78812885
145	0xbf71bdba	-0.94430125
146	0xbf9b1023	-1.21143
147	0xbf5ead15	-0.8698285
148	0xbedfeec8	-0.43736863
149	0xbe70c683	-0.23513226
150	0xbe4a1e66	-0.19738159
151	0xbf864e87	-1.0492715
152	0xbf38acc8	-0.72138643
153	0xbf0369bb	-0.51333207
154	0xbf6d7921	-0.92762953
155	0xbf462ca9	-0.77411896
156	0xbf6f93ca	-0.93584883
157	0xbf419491	-0.7561732
158	0xbd9a3a4b	-0.0753065
159	0xbf555803	-0.8333742
160	0xbf59459c	-0.8487184
161	0xbf9e0c4d	-1.2347504
162	0xbef6972b	-0.48162207
163	0xbf10b418	-0.565248
164	0xbf606786	-0.87657964
165	0xbf9bc2a5	-1.2168776
166	0xbf98600d	-1.1904312
167	0xbf13e67d	-0.5777357
168	0xbf718024	-0.9433615
169	0xbe5c7eb3	-0.21532707
170	0xbe6e459a	-0.23268738
171	0xbf544161	-0.8291226
172	0xbf816bf9	-1.0111076
173	0xbfa7739d	-1.3082157
174	0xbf114807	-0.5675053
175	0xbece6239	-0.40309313
176	0xbec5e321	-0.38649848
177	0xbf915949	-1.1355373
178	0xbfa95e82	-1.3231966
179	0xbeb6a8e8	-0.3567574
180	0xbf6ccef6	-0.925033
181	0xbf636d9d	-0.8883913
182	0xbf8822e1	-1.0635644
183	0xbe873fec	-0.26415956
184	0xbf55e226	-0.835482
185	0xbf92bce1	-1.1463891
186	0x3eaaf08f	0.33386657
187	0xbf4433bf	-0.7664146
188	0xbf71ed83	-0.9450304
189	0xbf7b3fc2	-0.9814416
190	0xbf6a6ab4	-0.91569066
191	0xbed908a7	-0.42389414
192	0xbb9eda0f	-0.004847772
193	0xbebaadb7	-0.3646066
194	0xbed4fd6c	-0.41599596
195	0xbf39ab46	-0.7252697
196	0xbeb8f5c7	-0.36125013
197	0xbf8eb040	-1.1147537
198	0xbf68ab9f	-0.90886873
199	0xbf296ade	-0.6617869
200	0xbf7dbb24	-0.9911368
201	0xbfa56e79	-1.2924339
202	0xbef0cabb	-0.4702967
203	0xbf5517f0	-0.8323965
204	0xbf550047	-0.8320355
205	0xbfaa8e0d	-1.33246
206	0xbf9e2f58	-1.2358198
207	0xbf825f7c	-1.018539
208	0xbf82b86e	-1.0212533
209	0xbf772393	-0.96538657
210	0xbf577ccb	-0.84174794
211	0xbfa03329	-1.2515613
212	0xbf8668f4	-1.0500779
213	0xbee6e7e0	-0.45098782
214	0xbf286695	-0.6578153
215	0xbf204738	-0.6260867
216	0xbf8ffae0	-1.1248436
217	0xbf575a6a	-0.84122336
218	0xbe0ec855	-0.13943608
219	0xbf62039c	-0.8828676
220	0xbf881305	-1.0630804
221	0xbf4c962b	-0.7991664
222	0xbe260c1c	-0.16215557
223	0xbe8ebfc9	-0.27880695
224	0xbf96763a	-1.175483
225	0xbee5f8f4	-0.449165
226	0xbe49e84d	-0.19717522
227	0xbf816ea9	-1.0111896
228	0xbf8293c4	-1.0201344
229	0xbf67eb03	-0.90592974
230	0xbec395cd	-0.38200226
231	0xbf5309bc	-0.8243673
232	0xbf3e00d9	-0.74220043
233	0xbf7bee5c	-0.9841058
234	0xbfcb889f	-1.5901068
235	0xbf96ae0d	-1.1771866
236	0xbf2eb3fa	-0.6824337
237	0xbe94e7bf	-0.29083058
238	0xbfa7866a	-1.3087895
239	0xbf861e78	-1.0478048
240	0xbf948ec2	-1.1606066
241	0xbf711e60	-0.94186974
242	0xbef03cdf	-0.4692144
243	0xbf4964a2	-0.7866918
244	0xbf86a8be	-1.0520246
245	0xbed18274	-0.4091984
246	0x3ec3792c	0.38178384
247	0xbf51bced	-0.819289
248	0xbf9e1c54	-1.2352395
249	0xbe9e3a25	-0.30903736
250	0xbe981f5d	-0.29711428
251	0xbf792eab	-0.97336835
252	0xbf2e49d1	-0.68081385
253	0xbf97a3e7	-1.1846894
254	0xbf6f615c	-0.93507934
255	0xbf8b661a	-1.0890534

out.weight f4 [4, 256]
0	0x3f953fa8	1.1660051
1	0x3f986ea1	1.1908761
2	0x40126fa0	2.288063
3	0x3fdbe1f6	1.7178333
4	0xc00caa6f	-2.1979024
5	0xbef6d4e8	-0.4820931
6	0x3ff6f0f1	1.929228
7	0x403653ab	2.8488567
8	0xbfda3983	-1.7048801
9	0x402e6b90	2.725315
10	0xba6fd9c5	-0.00091495767
11	0x3f4fe89e	0.8121432
12	0xbfe501c6	-1.7891166
13	0x3f0bf01c	0.5466325
14	0x3f8b2d1d	1.0873142
15	0xb9a8808e	-0.00032139238
16	0xbfde15c7	-1.7350396
17	0xbfc64cd3	-1.5492195
18	0xbfb1800b	-1.3867201
19	0x3fb0d945	1.3816305
20	0x3fe1b1d3	1.7632393
21	0x4003afb4	2.057599
22	0xbc5cd5db	-0.0134787215
23	0xc08a601e	-4.324233
24	0x3ffbb84b	1.9665617
25	0x3f3381bd	0.7011984
26	0x3daf5c16	0.08562486
27	0xbdc45294	-0.09586063
28	0x3fb74a89	1.4319621
29	0x3f2f09ea	0.683745
30	0x3fe30205	1.7734991
31	0x3fdf5442	1.7447588
32	0x3f579b92	0.84221756
33	0xbfb1ac48	-1.3880701
34	0xbfc6a8b5	-1.5520235
35	0x3fdc9fba	1.7236245
36	0x400c618b	2.1934536
37	0x3f425ce3	0.75922984
38	0x40272a8b	2.6119716
39	0x3ec56e72	0.38560826
40	0xbf04943d	-0.51788694
41	0x3fd35508	1.6510324
42	0x400986ab	2.1488445
43	0x40202bf1	2.502682
44	0xc014b588	-2.3235798
45	0x3db3b5ee	0.08774935
46	0x3f3673fd	0.71270734
47	0xbf9d75a8	-1.2301531
48	0x404a361b	3.1595523
49	0xbf647898	-0.8924651
50	0x3f689d05	0.9086459
51	0x3fc326ea	1.5246251
52	0x3fcfa698	1.6222715
53	0x3fc1af32	1.513159
54	0xbf846e8d	-1.0346237
55	0xc02c5c68	-2.69314
56	0xbe9a197b	-0.30097565
57	0x3fd0ec9d	1.6322209
58	0xc015ffac	-2.34373
59	0x3fa156bb	1.2604593
60	0xbf426f8d	-0.75951463
61	0x3fcbc3ad	1.591909
62	0x3fa5e852	1.2961524
63	0x4007c978	2.1216717
64	0x3fb829f6	1.4387805
65	0x40434aa1	3.05143
66	0x3fbf9b87	1.4969338
67	0x3f419e2a	0.75631964
68	0x3fad3418	1.3531523
69	0xbb093628	-0.002093682
70	0x4028c7eb	2.637202
71	0xbf2bb9d6	-0.6708044
72	0x3ffc3aaa	1.9705403
73	0x3f8e81b2	1.113333
74	0x3fccfb8d	1.6014267
75	0x3f56b60c	0.8387153
76	0xc022ccad	-2.5437424
77	0x3f4587af	0.7716016
78	0xbf7e08ba	-0.99232066
79	0x3ecea1b8	0.40357757
80	0xbf1091b4	-0.56472325
81	0x4031a49e	2.7756724
82	0xbed4ac84	-0.4153787
83	0x401fdc7c	2.4978323
84	0xbf731cea	-0.94965994
85	0x40105d60	2.2556992
86	0xb5688a8a	-8.6628336e-07
87	0xc019011c	-2.3906927
88	0x406229b7	3.533796
89	0xbfe96eb6	-1.8236911
90	0xbead39cf	-0.33833167
91	0xbf9f53e7	-1.244748
92	0x3ff14a9a	1.8850892
93	0x3fdbd8b6	1.717551
94	0x40193e3d	2.3944237
95	0x3febfcdb	1.843654
96	0x3ff75c22	1.9324992
97	0xbf387ba9	-0.7206369
98	0xbfaa174d	-1.3288361
99	0x3fd5de52	1.6708472
100	0xbfb4d9a4	-1.4128919
101	0xbeb31212	-0.34974724
102	0x3fda83ae	1.7071435
103	0x3fd1e4a7	1.6397904
104	0x3fc396b1	1.5280362
105	0x3f8cbec3	1.0995716
106	0x401b5883	2.4272773
107	0xbf873483	-1.05629
108	0x3f44222f	0.7661466
109	0xbffe4e7b	-1.98677
110	0x400e9af7	2.2282083
111	0xbcf3db3e	-0.029767629
112	0x3fcfe05e	1.6240346
113	0xbfe23d8d	-1.7675034
114	0x3f16d88e	0.58924186
115	0xbf737d88	-0.9511342
116	0xbfc61259	-1.5474349
117	0x3fbc3f6f	1.4706858
118	0x3d87c7cb	0.06629904
119	0x3f03c5a4	0.5147345
120	0xbf7b740d	-0.98223954
121	0xbfbe0935	-1.484656
122	0x3fb97b09	1.4490672
123	0x40257224	2.5850916
124	0x3fd613d9	1.6724807
125	0x3fcc86c0	1.5978622
126	0xbef41325	-0.47670856
127	0x3f447f1f	0.7675647
128	0x3f980f3b	1.1879648
129	0xbfb4304c	-1.4077239
130	0x3e295eac	0.1654002
131	0x3f183077	0.5944895
132	0x3f1c977c	0.61168647
133	0xbe2c364f	-0.16817592
134	0x3f882d33	1.0638794
135	0x3f4dd56c	0.8040378
136	0x402cfb8d	2.7028534
137	0xbf0a7322	-0.5408193
138	0xc053c68d	-3.3089936
139	0x3d308bb7	0.043101992
140	0xbe621d0d	-0.22081394
141	0xbfc43f72	-1.5331862
142	0xbfea11c4	-1.8286672
143	0x4042b19e	3.042091
144	0x40191e40	2.3924713
145	0x3f5769ec	0.84146
146	0x4014143f	2.3137357
147	0x3f843845	1.0329672
148	0xbef7b086	-0.48376864
149	0xbf5992c4	-0.8498957
150	0xbe9cf6cc	-0.3065704
151	0xc013d48d	-2.309848
152	0x3ee87584	0.45402157
153	0xbc62b8f9	-0.013838046
154	0x40081b39	2.1266615
155	0xbf76b56c	-0.9637058
156	0xbf898139	-1.0742561
157	0x3ebaf217	0.36512825
158	0x3d6f5f70	0.058440626
159	0x3fa32608	1.2745981
160	0x3ffb6dfb	1.9642938
161	0x3fa019fb	1.2507929
162	0x3ed69d79	0.41917017
163	0x3f75321f	0.95779604
164	0x3fc130db	1.5093035
165	0x3fd7ba31	1.6853696
166	0x3fc1f701	1.5153505
167	0xbf902a04	-1.1262822
168	0x3ece011e	0.40235227
169	0xbf960dc8	-1.1722956
170	0xbeb0d8cd	-0.34540406
171	0x3f3ee109	0.74562126
172	0xbff0f1e4	-1.8823819
173	0x3f8826b9	1.0636817
174	0xbe877501	-0.26456454
175	0xbe70e1de	-0.23523661
176	0xbf9c6c5e	-1.2220571
177	0x3fe566e6	1.7922027
178	0x3f5da235	0.86575633
179	0xbeb49958	-0.35273242
180	0x3f055ff5	0.52099544
181	0x3f063440	0.5242348
182	0x3f8c7150	1.097208
183	0xbed7fb20	-0.4218378
184	0x3f9b7aa6	1.2146804
185	0x4019606e	2.3965106
186	0xbf51ca17	-0.8194899
187	0xbff71c20	-1.9305458
188	0x3fd62a66	1.6731689
189	0x3f93ca86	1.154618
190	0x3ff5a7d2	1.919184
191	0x3ebe6713	0.37188014
192	0xbf2fa0d6	-0.6860479
193	0xbedbd997	-0.42939445
194	0xbff515b9	-1.9147254
195	0x3fe8de6d	1.8192879
196	0x3fca519b	1.5806154
197	0x3f7523e8	0.95757914
198	0x3ff1f718	1.8903532
199	0x3f8cfd8a	1.1014874
200	0x402d299b	2.7056644
201	0x401371eb	2.303828
202	0xbf402ff9	-0.750732
203	0x3ff2996a	1.8953068
204	0x3f9f3132	1.2436888
205	0xbf5e0f15	-0.86741763
206	0x40026ca8	2.0378819
207	0x4017026e	2.3595233
208	0xbfb10f97	-1.3832883
209	0x3fcaaabb	1.5833353
210	0x4026ce69	2.6063483
211	0x3f49c6ff	0.7881927
212	0x3405c4e8	1.2458224e-07
213	0x3f79178e	0.97301567
214	0xbffb7af0	-1.9646893
215	0xbd46ffaf	-0.048583683
216	0x3f8d71e2	1.1050379
217	0xc00bd042	-2.184586
218	0x3beba7a1	0.007191614
219	0x3fd771e7	1.6831635
220	0x3f7350d3	0.950452
221	0x3e605d92	0.21910694
222	0xbf2664cb	-0.6499755
223	0xbe2f802a	-0.17138734
224	0x40005fd5	2.0058491
225	0x3fdbd170	1.717329
226	0x3fd67ef4	1.6757493
227	0x3f80a8f7	1.0051564
228	0x402aa3a0	2.6662369
229	0xbfbc5bcd	-1.4715515
230	0x3f3c5abf	0.7357597
231	0x400a49f9	2.160765
232	0x400d4a87	2.2076738
233	0xbf771786	-0.9652027
234	0x400b856f	2.1800191
235	0x401aa638	2.4163952
236	0x400d3195	2.2061512
237	0x3f60408d	0.87598497
238	0x3f894307	1.072358
239	0x3fb759b8	1.4324255
240	0x4024d54e	2.575519
241	0x3f3e4ab8	0.7433276
242	0xbea450e0	-0.32092953
243	0x3f212d9f	0.6296024
244	0xc055516c	-3.3330946
245	0xbf1aa169	-0.6040254
246	0xbf0df9e4	-0.5545943
247	0x3f8ae1ab	1.0850118
248	0x400d6a0b	2.2095973
249	0x3fd30947	1.6487206
250	0xbf1238d3	-0.57117957
251	0x3f9fff6b	1.2499822
252	0x3e58455d	0.2112021
253	0x3f2f1b66	0.6840118
254	0x3f69b97c	0.9129865
255	0xbf5086a5	-0.8145545

out.bias f4 [4]
0	0x3f89ed01	1.0775453
1	0xbf6102c9	-0.87894875
2	0xbe86d0f7	-0.26331303
3	0x3f96e1c2	1.1787646
