dql_fixed_4x4_and_8x8/saved_model_dql_fixed_8x8.pt (torch, 73425 bytes, 4 tensors)

fc1.weight f4 [256, 64]
0.06911676 0.053396713 0.015351966 0.019639468 -0.042897627 0.008023055 0.20449926 0.008158615
0.15761028 0.047797993 0.10164996 0.19213104 0.025714457 0.18005693 -0.011558037 0.10501829
0.0066514784 0.14888886 0.09506865 0.13738991 0.09563367 -0.10775974 0.031642884 -0.051297132
0.08277429 0.09515084 0.14529157 0.1287803 -0.064709745 -0.10772666 0.03284811 0.028787052
0.06873559 0.02132551 0.13377158 0.34781057 0.176933 0.032520484 -0.07380029 -0.108810835
-0.043049235 -0.096928716 -0.112503044 0.016564885 0.02288079 -0.18274625 -0.059839837 -0.07007005
0.23036171 0.016015988 -0.16353479 -0.0638568 0.06193757 -0.058675 -0.20867953 -0.1462284
-0.031782363 0.030228814 -0.10608582 0.18165058 -0.05267189 -0.16415164 -0.22114511 0.045209847
0.00827198 0.10674742 -0.1754513 -0.0401823 0.15002906 -0.004389466 0.22916085 -0.06327494
-0.107203804 0.122558735 -0.07975531 -0.055817746 -0.025241936 -0.046269964 0.015296811 -0.03096895
-0.041607823 -0.05037662 0.2291743 0.16592677 0.03357714 0.052069366 -0.16066645 -0.041055646
0.012185378 0.09094608 0.16002595 0.106272705 -0.016054511 -0.018899243 -0.033272725 0.09462643
-0.05233368 0.10598067 -0.033044375 0.06311957 0.03526861 -0.07461674 0.0324936 -0.075534046
0.045052983 0.07228406 -0.09759959 -0.055989765 -0.15127608 -0.037122324 0.020170063 -0.009671836
0.09532849 -0.052552134 -0.030398034 0.06280526 0.25801283 -0.12903237 -0.033696413 0.05667509
-0.07123974 -0.038938303 0.016585464 0.24915776 0.045774817 -0.16736542 -0.13534448 0.064234145
-0.13544726 0.2785023 -0.015893029 0.07494029 0.2723147 -0.0030066452 0.387458 0.13785505
-0.0014889111 -0.09373559 0.0084618665 0.17098422 -0.09286828 0.120231435 -0.07114499 0.05994025
-0.008316083 -0.028990928 0.16164806 0.24527334 0.01668909 -0.053209655 0.003622618 -0.108764365
0.0056655244 0.00717314 -0.038674906 0.11959896 -0.02683594 -0.029297523 -0.05952835 -0.06684146
0.08850483 0.023107387 -0.14439256 -0.12213665 0.14757295 0.07983857 -0.005965918 -0.09333814
-0.10289023 -0.105375096 -0.10017299 0.055921197 -0.07812729 -0.12071108 -0.19867326 -0.054497123
0.25561687 -0.03381676 0.11026671 0.0017598107 0.20595717 -0.076926515 -0.123603545 -0.09646119
0.04756619 0.0366842 0.1524003 0.07381802 0.1349948 -0.0069104764 -0.1463513 -0.11894662
-0.033896536 0.06476246 0.011224955 0.06096621 0.03813708 0.063326776 0.062524244 -0.047850505
-0.08792977 0.11111294 -0.08348462 -0.012396961 -0.11761339 0.09412484 0.077945575 0.008891016
-0.009024173 0.037287652 -0.073446795 0.014443561 -0.033160523 -0.040673345 -0.11261867 -0.11505696
0.08181003 -0.029934853 0.06121087 -0.053532287 -0.016672507 -0.11716469 -0.026846886 -0.0035571754
0.017270386 -0.08510007 0.015906274 -0.12084782 0.08658403 -0.07156403 0.09459743 -0.026501924
0.08913325 0.076601356 -0.036981076 -0.09274599 -0.029028699 -0.09156594 0.030837864 -0.026993707
-0.057127476 0.10325304 -0.103065595 -0.112629145 0.10502903 -0.06849691 0.10328083 0.001772657
-0.0999663 -0.113777205 0.020558894 -0.07260823 0.11940059 0.05911857 0.07676782 -0.03785205
00000000: 168d 8d3d 83b6 5a3d d086 7b3c f3e2 a03c
00000010: 6cb5 2fbd 2273 033c 4168 513e b6ab 053c
00000020: 9764 213e d4c7 433d db2d d03d 00be 443e
00000030: 20a7 d23c d860 383e ec5d 3dbc d413 d73d
00000040: a5f4 d93b 5276 183e 5ab3 c23d f1af 0c3e
00000050: 96db c33d 23b1 dcbd f89b 013d f11c 52bd
00000060: 9185 a93d 72de c23d 50c7 143e fcde 033e
00000070: 8b86 84bd cc9f dcbd bd8b 063d d3d2 eb3c
00000080: 3fc5 8c3d d6b2 ae3c 6bfb 083e 3a14 b23e
00000090: ed2d 353e 3334 053d 9b24 97bd 37d8 debd
000000a0: 6554 30bd 9082 c6bd ff67 e6bd 15b3 873c
000000b0: 7f70 bb3c d521 3bbe 9e1a 75bd e380 8fbd
000000c0: f1e3 6b3e f633 833c aa75 27be 5bc7 82bd
000000d0: 40b2 7d3d 3255 70bd 16b0 55be e6bc 15be
000000e0: 392e 02bd 6ba2 f73c 8643 d9bd 9c02 3a3e
000000f0: 7bbe 57bd 5e17 28be dd73 62be f62d 393d
00000100: 3387 073c 649e da3d 81a9 33be 3296 24bd
00000110: 38a1 193e 82d5 8fbb 24a9 6a3e 4b96 81bd
00000120: ab8d dbbd 1300 fb3d c156 a3bd 26a1 64bd
00000130: 2dc8 cebc 9385 3dbd 7a9f 7a3c 98b2 fdbc
00000140: f76c 2abd b757 4ebd abac 6a3e b5e8 293e
00000150: 2f88 093d b046 553d bf85 24be f729 28bd
00000160: 2ea5 473c f041 ba3d d8dd 233e 81a5 d93d
00000170: c084 83bc 96d2 9abc fb48 08bd 80cb c13d
00000180: d75b 56bd 650c d93d 8a59 07bd d544 813d
00000190: d175 103d a9d0 98bd 0218 053d 98b1 9abd
000001a0: 7a89 383d aa09 943d 4be2 c7bd 8655 65bd
000001b0: 1ee8 1abe 940d 18bd b03b a53c 9f76 1ebc
000001c0: 953b c33d e840 57bd 4c05 f9bc 0ba0 803d
000001d0: 421a 843e 1021 04be 4005 0abd 2424 683d
000001e0: 24e6 91bd c57d 1fbd 3dde 873c 3623 7f3e
000001f0: 607e 3b3d d761 2bbe be97 0abe 318d 833d
00000200: b0b2 0abe da97 8e3e 1932 82bc 4b7a 993d
00000210: d56c 8b3e 230b 45bb e560 c63e e029 0d3e
00000220: 9127 c3ba 72f8 bfbd a4a3 0a3c 7d16 2f3e
00000230: ba31 bebd e63b f63d 77b4 91bd e883 753d
00000240: 2e40 08bc 627e edbc 1287 253e ef28 7b3e
00000250: 8fb7 883c 5ef2 59bd 7269 6d3b dabf debd
00000260: dda5 b93b a90c eb3b 9469 1ebd 4df0 f43d
00000270: 0cd7 dbbc 5c01 f0bc 00d4 73bd 2de4 88bd
00000280: 0542 b53d b44b bd3c a5db 13be c822 fabd
00000290: 5d1d 173e 6782 a33d bf7d c3bb 1128 bfbd
000002a0: 1db8 d2bd e6ce d7bd 7f27 cdbd a00d 653d
000002b0: 3301 a0bd 5f37 f7bd 0171 4bbe 6038 5fbd
000002c0: 37e0 823e 7183 0abd 83d3 e13d 73a9 e63a
000002d0: 70e6 523e a68b 9dbd db23 fdbd 728d c5bd
000002e0: c4d4 423d 2c42 163d d30e 1c3e e72d 973d
000002f0: 143c 0a3e 4771 e2bb 1ddd 15be 499a f3bd
00000300: 18d7 0abd 2ea2 843d e0e8 373c b4b7 793d
00000310: a035 1c3d 78b1 813d b60c 803d e4fe 43bd
00000320: 8614 b4bd 2e8f e33d fcf9 aabd a01c 4bbc
00000330: 4adf f0bd 86c4 c03d eea1 9f3d a0ab 113c
00000340: 20da 13bc f0ba 183d 466b 96bd b0a4 6c3c
00000350: 54d3 07bd 1899 26bd 9ea4 e6bd fca2 ebbd
00000360: 048c a73d f039 f5bc 40b8 7a3d ac44 5bbd
00000370: c894 88bc 0af4 efbd 00ee dbbc 801f 69bb
00000380: a07a 8d3c f248 aebd e04d 823c 107f f7bd
00000390: f852 b13d 2a90 92bd 4cbc c13d 901a d9bc
000003a0: 7e8b b63d 2ce1 9c3d 7879 17bd 9cf1 bdbd
000003b0: 98cd edbc ec86 bbbd b09f fc3c e821 ddbc
000003c0: 80fe 69bd 5476 d33d 0e14 d3bd 1caa e6bd
000003d0: 7619 d73d 1c48 8cbd e684 d33d 8058 e83a
000003e0: 22bb ccbd 0604 e9bd 206b a83c a0b3 94bd
000003f0: 4c88 f43d 5026 723d 7238 9d3d c00a 1bbd

fc1.bias f4 [256]
0.048406392 0.051712986 0.083605476 -0.08370426 -0.12184529 -0.11620973 -0.124607936 -0.09852467
-0.08944363 -0.062825605 -0.05977477 0.013625105 0.059943438 0.039069343 0.027454987 -0.058472857
-0.11785509 -0.117624596 -0.024467867 0.007985594 -0.06799866 -0.08074021 0.0016112713 0.020679243
0.062060893 -0.103979036 0.036649656 -0.08437085 -0.12934116 0.065090865 -0.091682374 -0.10053716
-0.021553885 -0.048128817 -0.03250303 -0.03245452 -0.026557809 -0.01796384 -0.042773966 0.031378403
0.012231305 0.06940457 -0.071663745 0.030541694 -0.12523074 -0.110003315 0.11871722 -0.087764755
-0.09134039 -0.09396441 -0.081266776 -0.061153986 0.013352603 -0.0010254682 -0.018720046 -0.054265887
-0.06061019 0.07826048 0.06303927 -0.08859506 -0.059783384 -0.067113996 -0.111793235 0.0013800458
0.07161522 0.08404182 0.04184344 0.023943827 -0.04061665 0.02109912 -0.104343995 -0.11661535
0.0041634636 -0.12080249 -0.0203176 0.03801827 0.0476978 -0.057875097 -0.11549175 -0.056300074
0.09131995 -0.09596653 -0.12989722 -0.040338665 0.048826396 -0.12032588 -0.11373942 -0.047773615
-0.11990653 -0.09634092 0.090968646 -0.12142052 -0.059027925 -0.08757304 -0.02296887 0.03374045
0.09082868 -0.018521242 0.040422805 -0.072464734 0.12013875 -0.051357254 0.05133611 -0.0112171285
0.14177766 -0.029918397 -0.12552829 -0.05363114 0.022208745 -0.10111709 0.09668282 -0.036889985
0.083738595 -0.039591245 0.0130280405 -0.026590094 -0.114310764 0.043423276 -0.06628242 -0.051686585
-0.11291315 0.023489716 0.083918616 0.09831095 -0.076805845 -0.0639395 0.073490225 -0.08940758
0.11132013 0.050982516 0.101794414 -0.06158636 -0.15386866 -0.13078472 0.004874949 -0.09743892
-0.03753198 0.107002735 0.06368855 0.02323009 -0.11841707 -0.015276587 0.03224133 0.09258891
0.033038978 -0.08479293 -0.12319785 0.0703543 -0.07839922 -0.0050060605 0.0704152 0.10945068
0.088456094 -0.105727054 -0.050033577 0.033685207 0.07686266 -0.0970054 0.05819847 -0.06768681
-0.018006261 0.011053188 0.028524479 -0.1087581 0.09708023 -0.104982376 -0.09591049 -0.06040427
0.083444774 0.0062185377 -0.08927292 0.09686874 0.105345234 0.0129070375 0.014901338 -0.10395527
-0.026086455 0.052934404 -0.107039556 0.06744346 0.01136905 -0.11520032 0.005214925 -0.13123715
-0.06105313 -0.11640711 0.07466667 -0.07882939 -0.018782556 -0.06777972 0.008996049 -0.007970586
0.046264727 0.10792652 -0.051011458 0.080887504 -0.037762612 0.06817198 -0.012482466 -0.099367335
0.085706264 0.044016093 0.079346836 0.0904397 -0.09278039 -0.015551767 -0.059820242 -0.037565634
0.034467414 0.080507405 -0.028721958 -0.101388834 0.06420863 0.06460497 -0.04904192 0.036447104
-0.051155526 0.041711286 0.092523426 -0.11749549 -0.1379525 0.03692642 -0.087508366 -0.039875373
0.07476795 0.106265776 -0.036849875 -0.11033373 0.023667231 -0.051027738 -0.059794858 0.09089769
-0.049563434 0.079905495 -0.0942989 -0.000102549544 -0.112817824 -0.08175059 -0.11770317 -0.14957468
-0.009200282 0.06602585 0.057246603 0.033667862 -0.041858744 -0.12373063 0.031298738 0.09912029
-0.034005597 0.107445896 -0.05399686 0.09639704 -0.086584374 -0.016735867 -0.09742956 0.014183411
00000000: c845 463d ffd0 533d 5939 ab3d 246d abbd
00000010: 068a f9bd 5eff edbd 7232 ffbd 4dc7 c9bd
00000020: 392e b7bd b6aa 80bd 64d6 74bd d53b 5f3c
00000030: 4087 753d 2d07 203d 48e9 e03c 3c81 6fbd
00000040: 025e f1bd 2ae5 f0bd d670 c8bc 02d6 023c
00000050: e242 8bbd 205b a5bd 4b31 d33a 8467 a93c
00000060: 9033 7e3d f6f2 d4bd f31d 163d a0ca acbd
00000070: 0272 04be 5c4e 853d f8c3 bbbd 6de6 cdbd
00000080: c691 b0bc b922 45bd e621 05bd 08ef 04bd
00000090: c38f d9bc e728 93bc c133 2fbd a486 003d
000000a0: d065 483c fc23 8e3d 71c4 92bd 9332 fa3c
000000b0: 7d3c 00be 6b49 e1bd 0422 f33d 02be b3bd
000000c0: ac10 bbbd 6a70 c0bd 326f a6bd 9a7c 7abd
000000d0: e0c4 5a3c 0169 86ba c85a 99bc e845 5ebd
000000e0: 6442 78bd 0847 a03d bc1a 813d 5471 b5bd
000000f0: 6cdf 74bd 1073 89bd daf3 e4bd a7e2 b43a
00000100: 00ab 923d 1e1e ac3d 0764 2b3d d825 c43c
00000110: a55d 26bd 10d8 ac3c 4eb2 d5bd 07d4 eebd
00000120: aa6d 883b 4c67 f7bd 1871 a6bc 0cb9 1b3d
00000130: c55e 433d 700e 6dbd f086 ecbd e89a 66bd
00000140: f405 bb3d 1a8a c4bd c703 05be 283a 25bd
00000150: 30fe 473d 6a6d f6bd 37f0 e8bd 44ae 43bd
00000160: 8e91 f5bd 634e c5bd c54d ba3d 52ab f8bd
00000170: 44c7 71bd 7e59 b3bd 3629 bcbc 6d33 0a3d
00000180: 6304 ba3d dcb9 97bc 6292 253d 6468 94bd
00000190: 4e0b f63d fc5b 52bd d045 523d 0cc8 37bc
000001a0: 2a2e 113e 6d17 f5bc 7d8a 00be 54ac 5bbd
000001b0: 1def b53c 7a16 cfbd a401 c63d f419 17bd
000001c0: 247f ab3d 6e2a 22bd 9073 553c 78d3 d9bc
000001d0: c31b eabd 9bdc 313d 14bf 87bd 50b5 53bd
000001e0: 023f e7bd 816d c03c 86dd ab3d 4057 c93d
000001f0: 624c 9dbd b6f2 82bd 0b82 963d 521b b7bd
00000200: cffb e33d 0bd3 503d 9779 d03d fb41 7cbd
00000210: bf8f 1dbe 6eec 05be 09be 9f3b 0e8e c7bd
00000220: 22bb 19bd 4024 db3d 246f 823d 084d be3c
00000230: a684 f2bd a64a 7abc 7c0f 043d 419f bd3d
00000240: e153 073d eaa7 adbd 284f fcbd ea15 903d
00000250: c58f a0bd e109 a4bb d835 903d ae27 e03d
00000260: 7828 b53d 6d87 d8bd 02f0 4cbd 80f9 093d
00000270: 2c6a 9d3d c4aa c6bd 8561 6e3d 629f 8abd
00000280: de81 93bc 6e18 353c 2bac e93c 91bc debd
00000290: 00d2 c63d 0001 d7bd b86c c4bd 786a 77bd
000002a0: 18e5 aa3d e0c4 cb3b b8d4 b6bd 1e63 c63d
000002b0: 3ebf d73d 0a78 533c be24 743c 80e6 d4bd
000002c0: 43b3 d5bc bfd1 583d 8e37 dbbd cc1f 8a3d
000002d0: 4045 3a3c 25ee ebbd f6e1 aa3b 0863 06be
000002e0: d912 7abd da66 eebd d7ea 983d 4e71 a1bd
000002f0: e0dd 99bc 18d0 8abd 2a64 133c 1097 02bc
00000300: 1580 3d3d 9408 dd3d 64f1 50bd 59a8 a53d
00000310: f8ac 1abd c09d 8b3d 4283 4cbc 1a81 cbbd
00000320: c486 af3d 384a 343d 9880 a23d 7338 b93d
00000330: a503 bebd d7cc 7ebc 1206 75bd 6cde 19bd
00000340: b42d 0d3d 11e1 a43d 504a ebbc f3a4 cfbd
00000350: d07f 833d 9c4f 843d 2ee0 48bd 8f49 153d
00000360: 7588 51bd 74d9 2a3d ec7c bd3d 7aa1 f0bd
00000370: 6c43 0dbe 2840 173d 9637 b3bd 5c54 23bd
00000380: f01f 993d dfa1 d93d e5ef 16bd a7f6 e1bd
00000390: c8e1 c13c 7602 51bd 74eb 74bd 9128 ba3d
000003a0: 0703 4bbd 7ea5 a33d c81f c1bd de0f d7b8
000003b0: 080d e7bd da6c a7bd 5c0e f1bd 1b2a 19be
000003c0: c8bc 16bc 9038 873d 6a7b 6a3d 50e7 093d
000003d0: 1374 2bbd 7c66 fdbd 1b33 003d 94ff ca3d
000003e0: 7449 0bbd 980c dc3d d02b 5dbd d06b c53d
000003f0: 2653 b1bd a819 89bc 2689 c7bd 8a61 683c

out.weight f4 [4, 256]
0.005190881 0.01804426 0.0010335677 -0.021887943 -0.051906154 -0.02338691 0.053964563 0.04235773
-0.09142793 0.01775939 0.015929863 0.08560348 0.06015779 -0.00063233636 0.03019321 -0.016940027
-0.0046742773 -0.019298702 0.024074145 0.03395808 -0.037175097 0.009970732 -0.023042277 0.015410598
0.061463043 0.030902222 -0.035076365 0.012301482 -0.04326177 0.05418112 0.023324817 -0.03041825
0.04128767 0.022049095 0.012398575 0.030826122 0.044966433 0.009140715 -0.007111848 -0.011054654
0.044310726 0.06175477 0.016126215 0.014293665 -0.028714016 0.088288985 -0.0059831813 -0.05880744
-0.029416656 0.024183761 0.045382224 0.067155525 -0.06201025 0.0038138384 -0.012743659 -0.0051022395
0.0002811849 0.05200479 0.034464408 0.051317737 -0.018057115 0.037172906 -0.053686928 -0.038879447
0.06890479 0.004243061 -0.04871824 -0.05300773 0.07803003 -0.014904097 -0.05749575 -0.04126996
0.00059685996 0.0505881 -0.00926695 -0.01042024 0.012424939 0.020655565 -0.016308852 0.012860723
-0.0036365553 -0.052866332 -0.03245563 0.029179292 -0.034206055 -0.013116352 0.010311743 0.02612218
0.018987838 0.15475658 0.08505929 0.0017939985 0.05988188 0.04953038 -0.0031776042 0.007962687
-0.008219099 0.030894786 0.04301775 -0.01159288 -0.05999378 -0.04992628 -0.061574996 0.032342073
-0.01601301 0.005246157 -0.114828855 -0.053241394 0.089469135 -0.012961842 0.06235586 -0.005558327
0.009275113 0.019721393 -0.023185328 0.02005747 -0.08928549 0.0961865 -0.05214952 -0.025615767
-0.012334394 0.035321422 0.017479591 0.035332367 0.036918726 -0.00011211634 0.02064242 0.022832496
-0.012059216 0.007939787 0.067820646 0.009886495 -0.012495277 -0.05123922 0.07607293 -0.034383554
-0.10743195 -0.0031217337 0.012545034 -0.029465735 0.0048330203 0.058554355 -0.022714958 0.005615668
-0.043251846 0.0071150884 0.022446439 -0.053474806 -0.033693466 0.012394999 -0.021389857 0.056830518
0.06325704 -0.054354247 -0.012415531 0.044613305 0.015492306 0.041764393 0.044688042 0.035066545
0.06813281 -0.0031403543 -0.049511 0.023417676 -0.024203587 0.004772283 0.022292204 0.013285344
-0.04457621 0.04930777 0.0031086504 0.041078232 0.11953085 -0.024234418 0.026822153 -0.030778332
0.012566895 0.03977348 0.00083131343 0.06813668 0.033515282 -0.025258988 -0.014689473 -0.048539773
0.0036349453 -0.059892192 -0.003465092 0.0033103693 0.037371054 0.0013386114 0.022613214 0.04520511
-0.034565948 0.08769118 0.0234394 -0.011871892 -0.0057336786 -0.00067612133 0.079696536 -0.015561536
-0.060705237 0.0135962665 0.08496057 -0.005688547 -0.0034666753 0.0888016 -0.013193282 -0.04666379
0.069944695 -0.036545567 0.010317549 0.015316925 0.064597 -0.04663326 0.042248968 -0.020752823
-0.046381425 0.03535148 0.025239803 -0.016196491 0.013598506 0.03151589 0.024530815 -0.0039774403
0.026917763 -0.017697448 0.059003342 -0.01701619 0.008927457 -0.01419905 0.033149526 0.07807331
0.00677917 0.054628953 0.03262683 -0.009969623 0.010535143 -0.045865357 -0.039096996 0.026539583
0.018339677 -0.031551052 0.030994948 0.014265984 0.032215007 -0.02103969 0.01905383 0.003561716
-0.01829625 -0.010662004 0.05396635 -0.02692324 -0.052482784 -0.072347164 -0.026105516 0.03955349
00000000: 4418 aa3b 8ed1 933c c778 873a 584e b3bc
00000010: 8c9b 54bd e895 bfbc f209 5d3d 4d7f 2d3d
00000020: 913e bbbd 247c 913c 587f 823c e150 af3d
00000030: 0468 763d 60c3 25ba c057 f73c d0c5 8abc
00000040: ae2a 99bb 5018 9ebc 2437 c53c a117 0b3d
00000050: ea44 18bd 485c 233c 28c3 bcbc bc7c 7c3c
00000060: acc0 7b3d a826 fd3c 3cac 0fbd 288c 493c
00000070: 4133 31bd 06ed 5d3d b013 bf3c b22f f9bc
00000080: 431d 293d 4ea0 b43c 6523 4b3c 1087 fc3c
00000090: b92e 383d f0c2 153c 810a e9bb 941e 35bc
000000a0: 2a7f 353d 92f2 7c3d 201b 843c fa2f 6a3c
000000b0: a839 ebbc dbd0 b43d 900e c4bb 12e0 70bd
000000c0: 33fb f0bc 061d c63c b6e2 393d d688 893d
000000d0: 76fe 7dbd 97f1 793b c8ca 50bc b030 a7bb
000000e0: 006c 9339 fa02 553d 8d2a 0d3d 8c32 523d
000000f0: 84ec 93bc 9e42 183d d3e6 5bbd 0e40 1fbd
00000100: f41d 8d3d 6009 8b3b c78c 47bd a21e 59bd
00000110: 35ce 9f3d 5030 74bc aa80 6bbd b10a 29bd
00000120: 9876 1c3a 7835 4f3d 68d4 17bc a8b9 2abc
00000130: f991 4b3c dc35 a93c 249a 85bc c8b5 523c
00000140: 4653 6ebb 5e8a 58bd 32f0 04bd 6909 ef3c
00000150: a61b 0cbd f8e5 56bc 96f2 283c 2ffe d53c
00000160: 628c 9b3c 8278 1e3e 9133 ae3d 9a24 eb3a
00000170: b446 753d 5ee0 4a3d 5a3f 50bb ee75 023c
00000180: 66a9 06bc 1017 fd3c 6133 303d 10f0 3dbc
00000190: 0abc 75bd 807f 4cbd 1036 7cbd 1f79 043d
000001a0: b72d 83bc f4e7 ab3b 642b ebbd a613 5abd
000001b0: 983b b73d e85d 54bc dc68 7f3d a022 b6bb
000001c0: a5f6 173c c28e a13c 28ef bdbc 904f a43c
000001d0: 50db b6bd 6dfd c43d bc9a 55bd 28d8 d1bc
000001e0: 3316 4abc 32ad 103d 5c31 8f3c acb8 103d
000001f0: 1738 173d 0020 ebb8 4b1a a93c 370b bb3c
00000200: 0594 45bc e115 023c 8de5 8a3d f7fa 213c
00000210: feb8 4cbc 37e0 51bd 20cc 9b3d c5d5 0cbd
00000220: 4805 dcbd 0096 4cbb b089 4d3c 2062 f1bc
00000230: 505e 9e3b b1d6 6f3d b814 babc a303 b83b
00000240: d928 31bd b025 e93b 98e1 b73c 6608 5bbd
00000250: 2902 0abd 6514 4b3c c839 afbc 1ec7 683d
00000260: e88c 813d 8fa2 5ebd 836a 4bbc 71bc 363d
00000270: 71d3 7d3c 2411 2b3d cf0a 373d f0a1 0f3d
00000280: 3789 8b3d 67ce 4dbb 0ccc 4abd 6dd6 bf3c
00000290: 9a46 c6bc d060 9c3b 249e b63c c5aa 593c
000002a0: 8b95 36bd f2f6 493d 80ba 4b3b a641 283d
000002b0: 97cc f43d 4287 c6bc 22ba db3c d722 fcbc
000002c0: 61e5 4d3c 84e9 223d 80ec 593a 3e8b 8b3d
000002d0: 5247 093d f0eb cebc 1eac 70bc a4d1 46bd
000002e0: 4338 6e3b 8451 75bd 9916 63bb c8f2 583b
000002f0: 6412 193d 5874 af3a 593f b93c fe28 393d
00000300: 0695 0dbd 6f97 b33d fc03 c03c 5382 42bc
00000310: 95e1 bbbb bc3d 31ba f037 a33d d0f5 7ebc
00000320: 0ea6 78bd e0c2 5e3c cfff ad3d fe66 babb
00000330: 2931 63bb 9ddd b53d a328 58bc 8822 3fbd
00000340: 2a3f 8f3d ceb0 15bd f00a 293c d7f3 7a3c
00000350: 6f4b 843d 8402 3fbd 410d 2d3d d301 aabc
00000360: 73fa 3dbd b7cc 103d b4c3 ce3c 81ae 84bc
00000370: 45cc 5e3c ce16 013d d9f4 c83c 3055 82bb
00000380: a482 dc3c 3dfa 90bc 7dad 713d 8965 8bbc
00000390: 7844 123c 22a3 68bc ccc7 073d e6e4 9f3d
000003a0: cd23 de3b 9cc2 5f3d b6a3 053d a157 23bc
000003b0: 989b 2c3c 50dd 3bbd 2c24 20bd 8a69 d93c
000003c0: 173d 963c ad3b 01bd 1ee9 fd3c e0bb 693c
000003d0: e2f3 033d 6e5b acbc c716 9c3c ae6b 693b
000003e0: 04e2 95bc b0af 2ebc d20b 5d3d 208e dcbc
000003f0: 30f8 56bd c02a 94bd 3cdb d5bc d702 223d

out.bias f4 [4]
0.03381912 0.006271054 0.055942066 0.040873375
00000000: eb85 0a3d 6a7d cd3b 8223 653d d76a 273d
