dql_fixed_4x4_and_8x8/saved_model_dql_fixed_4x4.pt (torch, 8145 bytes, 4 tensors)

fc1.weight f4 [64, 16]
00000000: 5c59 8f3e 813c 1d3e 3ab9 143d 0177 203e
00000010: ca27 a03d 2f8f fabd 19b7 edbd 41be c0bd
00000020: 1cbd 75be 8bac 31bd edbe 7c3e 5a7c 4cbe
00000030: 5907 2a3e 18ed 803e bc92 453c a418 003e
00000040: fcbe ff3d be6a 57be 3820 39bd 587c 303e
00000050: 600a f83d 5620 3abe f887 f83d 300f a6bc
00000060: a889 53be e8e8 4b3d a680 4d3e 94c2 17be
00000070: c837 6cbe 3635 043e 5ce9 4f3e 3ca8 a1bd
00000080: 2d1c 04be f11b 94be 28e1 47be 1f22 2bbe
00000090: cb1c 3a3d a562 dfbd 8675 393e 0ac1 413e
000000a0: bf83 543e 287d 113e 05bf af3e 619f d73e
000000b0: 7a3a 76be 5d52 53be 1ed3 57be 2487 9cbb
000000c0: ccac 973d 689d 0dbd 2898 9e3d 904d 6b3d
000000d0: 853e 0ebe f8f0 6dbd f4ea f03d bca7 a03d
000000e0: 3e01 363e f280 0e3e 8008 5e3b 232b 2f3e
000000f0: 1dab 0e3e 209e 21bd fbde b93c 80c8 1ebe
00000100: 5a14 3f3e b98a 963d 6200 113e 4afd 513d
00000110: ee72 383c 74e3 0cbe ef72 f93d 9080 16be
00000120: f67d f23d 62d1 16be 9536 273e 1e44 3dbd
00000130: 98bb b8bd 90a2 1c3e 33d8 113e 180c 053e
00000140: f86a 6b3e 8095 753d dafa 073e e865 753d
00000150: 1e64 27be 2849 ff3d dc30 0ebe 9c5c f43d
00000160: d064 82bd ec3b 943d 0e83 2fbe 3c75 413e
00000170: fe39 383e 9e44 4dbe a0c2 243c 187c a2bd
00000180: df6d 343e 02ee 05bd 4bba 203e 8f2b 8b3e
00000190: dc41 02be 42d2 9cbd c60b 6f3b eb8f 9d3e
000001a0: f732 a2be 7671 133e ad9b 003e 8a73 d63d
000001b0: 869b 233d 5f6c b0bd e2c4 20be fcf3 3c3e
000001c0: 285c 4cbd 44ce 0abe 6942 6fbe 0162 463e
000001d0: 5d79 57be c6b4 923c e7c3 3cbe 6309 15be
000001e0: d959 3e3e 0810 743c ee68 7b3b 4ec0 87be
000001f0: 653e 8cbd 767e bbbe 2277 b93d 4f71 133e
00000200: 6fb7 87b7 c680 45bd 7bc0 043e 62d2 bdbc
00000210: 7e2a 13be 84db 963e a261 263e 8654 0b3d
00000220: 72ba 1cbd aad4 cd3d 738a 89be 335c 20be
00000230: 3035 193d 0d0a 4bbe 1c68 6d3d 9f89 7e3e
00000240: db15 89bc aab0 b9bd cfde 833c e261 873e
00000250: 6fa9 9fbd 0faa bb3e c51b 2a3d 7df5 493e
00000260: e4c5 943d 5129 3f3d 20fc d8bd 8b85 873e
00000270: 942a 07be f7cb 653e eac1 433e 66b8 d43d
00000280: 8fda 8d3e 44e0 c8bd 333d 033e c13b af3d
00000290: bd5f d9bd 3b71 20be 5150 0dbe f47e 98be
000002a0: 3c55 f83e feb0 173d fa44 cb3e f90a a6be
000002b0: fa50 c83c 00f3 633d dbcd 4fbe 75dc fcbd
000002c0: 440e 84bc 24d9 513e 5384 813d 270a 193e
000002d0: f7b4 77bd 499d cbbe 12b8 193e 1d23 bc3d
000002e0: c0a4 debe 2cf9 e8bd 2821 2fbc bc6e 86bd
000002f0: ed83 183e f4ad e03d 28be 81be 0cc6 5b3e
00000300: 98ba d23d 0817 74bd 622f 79be 3eaf 4ebe
00000310: 401a 48bc 7445 293e 4643 5e3e dc2c ddbd
00000320: 78f7 3cbd 6855 09be 70d0 333d 98b3 23be
00000330: c4de de3d 786e 9f3d e063 473d 708c e83c
00000340: 90ba 873d 10cb 2cbd 20d6 bf3c a0c5 21bc
00000350: 3c4f a73d 3831 6cbe 4ee7 41be 88dc 2cbe
00000360: 0004 f23c d08c 2bbe 7cc6 6b3e be51 503e
00000370: 207d d1bc 9c84 4abe 86c4 7d3e 5088 c73c
00000380: 7d9d 783e 9ca6 a6bd c8bb 83be d89b c33d
00000390: e658 a5bc 5415 4ebe 53d8 2f3c 7b7f c1bc
000003a0: a1cc 55be 2554 a13d 4e29 0c3e 73ed 8abe
000003b0: 8d52 e7bd 5829 633e c80a 423e d508 db3d
000003c0: 03cd 5abe e6ba 6e3e a0cf 073e 6f2e 13be
000003d0: a90e 713e 3f31 173b 8742 53be 7533 6f3d
000003e0: 2e6d 473e cf3e d53d d6f8 6dbe 46b8 d13d
000003f0: 1c0b b33b 57e3 6abc af33 2dbe 79db 3e3e
0.27997863 0.15355112 0.03630946 0.15670396 0.07820089 -0.12234341 -0.11607189 -0.09411288
-0.23997921 -0.04337744 0.24682207 -0.19969311 0.16604365 0.25180888 0.01205891 0.125094
0.12487599 -0.21036813 -0.04519674 0.17234933 0.12111354 -0.18176398 0.12135309 -0.020270914
-0.2065798 0.049782664 0.20068607 -0.1482032 -0.23068154 0.12910923 0.20303863 -0.07893416
-0.12901373 -0.28927568 -0.19519484 -0.16712235 0.045437615 -0.10907487 0.18111238 0.18921295
0.20753382 0.142079 0.34325424 0.42113784 -0.24045745 -0.20636888 -0.21076629 -0.004776852
0.07406005 -0.034573942 0.07743865 0.057447016 -0.13891037 -0.058091134 0.11763564 0.07844493
0.17773911 0.13916376 0.0033879578 0.17106299 0.13932462 -0.03945744 0.022689333 -0.15506172
0.18660107 0.07350678 0.14160302 0.051266946 0.01125787 -0.13758641 0.12180125 -0.1469748
0.118404314 -0.1472831 0.16329415 -0.04620754 -0.09020156 0.15296388 0.1424263 0.12992895
0.22990024 0.059957027 0.13279286 0.05991164 -0.16346785 0.12465125 -0.13885826 0.11931726
-0.06366885 0.07237992 -0.17139837 0.18892378 0.17990872 -0.20045707 0.010056168 -0.07933825
0.17620037 -0.032697685 0.15696065 0.2718167 -0.12720436 -0.07657291 0.0036475523 0.30773863
-0.31679508 0.1439875 0.12559386 0.10471256 0.03994324 -0.0861442 -0.15700105 0.18452448
-0.049892575 -0.13555247 -0.23365177 0.19373323 -0.2104239 0.017908465 -0.18434106 -0.14554362
0.18588962 0.0148964 0.0038362104 -0.26513904 -0.06847838 -0.3661992 0.09055926 0.14398693
-1.6178672e-05 -0.04821851 0.1296405 -0.023171607 -0.14371678 0.29464352 0.16248181 0.034016155
-0.038263746 0.10050328 -0.2686344 -0.15660171 0.03740424 -0.19828053 0.057960615 0.24857186
-0.016734054 -0.09066899 0.016097454 0.26441866 -0.07795989 0.36653182 0.04153039 0.19722553
0.07264307 0.04667026 -0.10594964 0.26469073 -0.13199836 0.22441088 0.19116941 0.10386734
0.2770581 -0.098084 0.12816314 0.08556319 -0.10613964 -0.15668194 -0.1380017 -0.29784358
0.4850253 0.037034027 0.39701062 -0.32430246 0.024452675 0.055651665 -0.20293371 -0.12346736
-0.016120084 0.20492989 0.06324067 0.14945279 -0.060475316 -0.39768437 0.15011624 0.09186385
-0.4348507 -0.11375651 -0.010689057 -0.0656409 0.14894076 0.10970679 -0.2534039 0.21462268
0.10289496 -0.059592277 -0.24334481 -0.20184037 -0.01221329 0.165304 0.2170535 -0.10799572
-0.046134442 -0.13411486 0.043899953 -0.15986478 0.10882333 0.07784742 0.048679233 0.028387278
0.06627381 -0.042185843 0.023417532 -0.009873778 0.0816941 -0.2306565 -0.18935892 -0.16881001
0.029542923 -0.16752934 0.23024935 0.20343682 -0.02557236 -0.19777149 0.24781999 0.024356991
0.24278827 -0.08137247 -0.25729203 0.09551209 -0.020183992 -0.20125324 0.010732728 -0.023620358
-0.20878841 0.078773774 0.13687631 -0.27134284 -0.11295042 0.2218374 0.18949425 0.10695044
-0.21367268 0.23313484 0.13262796 -0.14373182 0.23540749 0.0023070124 -0.20630847 0.058398683
0.19475242 0.104123704 -0.23239455 0.102402255 0.005463971 -0.014336429 -0.16914247 0.1863841

fc1.bias f4 [64]
00000000: 3e4b 44bd 5391 2abc affb dc3c 51e8 df3d
00000010: bda2 92bd c082 cbbd 06d9 153e 2ce2 f5bd
00000020: 313f 3f3e b50d 663e 793c 0e3e eeac 1dbd
00000030: d6a9 4ebe 203b 77be bc77 a33a 5394 4a3e
00000040: 62ed 373e d404 6f3e b775 303e 69f4 20bd
00000050: cec1 34be f0e0 62bd 9cbc ca3c 8496 7b3e
00000060: 3a4d 4dbe f122 58be cddd a3bd 96aa 433e
00000070: 724f 403e beeb 6ebe 48bd 8bbd c6c2 283e
00000080: 79c8 83be 6ea3 41be f025 47be 4ff4 4abe
00000090: dcd0 d63d ceb7 2cbe 6736 a83d dc4e 36be
000000a0: 3cea 1e3e 393b 25bc 5d8a 2b3e 9a39 143e
000000b0: e66a 2abd 72cb cfbd ea55 01be e76a 2bbc
000000c0: 18d4 563e f6b0 b4bd 10f8 f8bc 6058 6bbe
000000d0: 92ed 823e 9e49 7bbe 72a5 e03c 4c40 22be
000000e0: ae57 91be 736d fcbb e2c7 403e 8f30 413c
000000f0: b9f8 463e b1f6 a23d 6881 6fbe 1b5a 823e
-0.04792332 -0.010410625 0.02697548 0.10932983 -0.07159946 -0.09937048 0.14633569 -0.120060295
0.1867645 0.22466166 0.13890256 -0.038494997 -0.20181975 -0.24143648 0.0012471597 0.19783144
0.17961648 0.23341686 0.17232405 -0.039295588 -0.17652056 -0.0553903 0.02474814 0.24569136
-0.20048991 -0.21107079 -0.080012895 0.19108042 0.18780306 -0.23332116 -0.06823212 0.1648055
-0.25738886 -0.1891 -0.19448066 -0.19819759 0.104890555 -0.16866991 0.082135014 -0.1780352
0.15519041 -0.010084921 0.16752 0.14475098 -0.041605853 -0.10146226 -0.1263043 -0.010462499
0.20979345 -0.08822815 -0.030391723 -0.22982931 0.25571877 -0.24539801 0.02742264 -0.1584484
-0.28387207 -0.007703477 0.18826249 0.011791362 0.19430818 0.07957209 -0.23389208 0.2545937

out.weight f4 [4, 64]
00000000: b486 3dbc 1d09 da3d 179f 483e 4a99 d33d
00000010: ea39 333d cc0f b7bd bffc 0f3e edc6 a5bd
00000020: 8756 a7bd e6c3 a8bd 4547 0d3b a3f2 fc3d
00000030: e808 cabd 2078 d03b 20fa 783c 72a8 a0bd
00000040: 14c2 253e 7a3e 4ebb 046c 0a3e c319 c93c
00000050: 86bd f23d 2ccd 093e de8f 293c c801 c3bd
00000060: 5456 27bd 9a28 dbbc 124e 6b3e 5b15 5abe
00000070: c8ef aa3c 40ca 5abc e8a3 2ebc efe8 783d
00000080: e84b 21be 8c59 88bd a02e 60bd e3f9 283e
00000090: 6869 f53d 36ef d43d 6b55 adbd e869 85bc
000000a0: d245 b93d a1b6 98bd f8fc 06bd 9635 db3d
000000b0: 1987 0c3e 701a 00bd b372 c1bd 194d 16bc
000000c0: 0c2f d93d 01ef a3bd 26ce c53d be8f bebd
000000d0: ff24 ad3d 70d2 1fbc f10d ac3c 90b3 8ebd
000000e0: c12c 15bc 1e32 6e3d e175 9dbc f9cb 7c3d
000000f0: d584 7bbd 0613 b6bd 9623 f4bd fdeb 813e
00000100: 2daf c9bd de6a d93d bcdc 003d e626 e0bb
00000110: 25a9 b3bd 8422 39bd e231 c13d 9984 8bbd
00000120: 20b2 b53d ad08 9d3d 5ea1 27be 2d6e 5d3d
00000130: 88bf c63d e816 b03c 2034 ddbd 7d1e 383a
00000140: 9f85 fc3d ea3a 403d 8745 0d3e 7b4c 803d
00000150: 947d eb3d 6860 4abe 9318 553e bffc 953e
00000160: 8aa4 a3bd 6b41 043e c08f a13c bdba 01bd
00000170: 0fa4 4d3e b836 bcbc b958 9bbd 28d5 99bd
00000180: ce2c 00bd 5230 f33d 3057 8bbc 2e5a 15be
00000190: 9662 b13c 2c32 4fbd 2f44 e0bd 7a35 fc3d
000001a0: 709a ce3d f24f 54bc ec23 1e3e f9d4 97bd
000001b0: 5233 b9bd d544 8dbd 8b5c 0cbd 93ad 403e
000001c0: db98 fdbc 6e22 0c3d 6a30 c23d 9091 463c
000001d0: 0c7d e73d ba06 c0bd a723 c13d 86a0 eabd
000001e0: 77ee 9ebc f220 68bd 05a0 5abd 3762 b9bc
000001f0: 157c 50bd 1900 5a3d d063 663c 67ae 963d
00000200: ea32 8dbd 8cc5 48bd 3b99 7b3e f78d 1ebd
00000210: 26f4 89bd c0ea ecbd 931e 9b3d 176a 1c3e
00000220: 97ff 0b3e 2bde 90bb 4158 87bc cf36 603c
00000230: 08d4 2a3d e087 9c3d 1540 b8bd 15f2 8bbd
00000240: e023 2d3d 49a8 d43d 8abf df3d e5ce 843c
00000250: 705c e4bd 6196 a83d 6fd9 8f3d 8fa8 e03d
00000260: 2029 3a3c 0f01 d03d 4b6d 293e 9244 72be
00000270: aad8 b73b a4a1 febd 6216 0d3d 7854 903c
00000280: f384 01be a02a de3b d49d 67bd 164b 4c3e
00000290: 2ab0 ca3d 3842 f1bd 1823 9a3c 60fe 4a3c
000002a0: a040 bbbc e8b9 243e 1d6b 8dbd 7549 413e
000002b0: dec7 82bd de59 c33d 3ead 70bd d165 453d
000002c0: 440a c03d 9135 1e3e b602 dabd 50c7 4dbd
000002d0: 0f91 ac3c 44aa 71bd a08f 5fbd ae9e ec3d
000002e0: 3988 bfbd d77f afbd f432 6ebd 3824 89bd
000002f0: 586f 85bd 201d a8bd 1240 b73d a284 913b
00000300: 025e ce3c de5b e33d 810f 6c3d 5426 a03d
00000310: b220 9abd a6e8 92bd 85fc 0d3e 2086 563c
00000320: 27a1 8cbd f527 bf3b 0930 93bd 6619 213e
00000330: 80b4 73bd beef 8fbd 322f 8b3d bed3 b6bd
00000340: c7e6 f43b 436a 6b3d ccdd 5abd 772d 84bd
00000350: d0c5 b53d 9d3e 57bd 5da4 703c 7460 c53d
00000360: e09b 5fbd 34b6 193d a792 1b3e 4689 1a3d
00000370: 2c9b f73d 403b 2dbd 2b98 3d3e d18a 0a3d
00000380: d3b3 be3c 082f a7bd 0c57 f9bd f509 e43c
00000390: a35e 04be 4e71 883d dfd6 5cbd d60c f3bd
000003a0: 1053 1b3d 7b08 9f3d 8b98 3c3b baec 9e3d
000003b0: bcef 15bd 3fdf f1bb 98c9 02bd c895 0fbb
000003c0: 309e fd3d 2136 3dbd 7a57 943d d2a3 f2bd
000003d0: 4541 a83d 1096 953d 3e6c 303e 90cb e83d
000003e0: f5c7 91bd c859 04be 81aa 96bd cb29 c2bb
000003f0: 5ef2 8f3d ab44 a93d 1cab 783d af23 b1bd
-0.01156776 0.106462695 0.19591938 0.10331972 0.043756403 -0.0893856 0.14061259 -0.08094583
-0.08170801 -0.0824049 0.0021557373 0.12350967 -0.0986498 0.0063619763 0.015196353 -0.078446284
0.16187316 -0.0031470344 0.13517767 0.024548417 0.11852555 0.13457173 0.010349242 -0.09521824
-0.040853813 -0.026752759 0.22979 -0.21297209 0.02086629 -0.013353884 -0.0106591955 0.060769018
-0.15751612 -0.06657705 -0.054731965 0.16501574 0.11982995 0.10397188 -0.08463558 -0.016285852
0.0904652 -0.07456709 -0.032956094 0.1070358 0.1372341 -0.031275213 -0.09445705 -0.009173655
0.106046766 -0.08004571 0.0965846 -0.093047604 0.08454322 -0.009754762 0.021002742 -0.069678426
-0.009104908 0.058153264 -0.019221248 0.06171796 -0.061405975 -0.08890347 -0.1192085 0.25375357
-0.09847865 0.106160864 0.03146051 -0.0068405746 -0.08772496 -0.045198932 0.094333425 -0.068124
0.08871865 0.076676704 -0.1637015 0.05406015 0.097045004 0.021495298 -0.10800958 0.0007023586
0.12330174 0.046931185 0.13796054 0.062645875 0.114985615 -0.19763339 0.20810156 0.29294392
-0.07990368 0.1291558 0.019721866 -0.031672228 0.20082115 -0.02297531 -0.07585282 -0.075113595
-0.03129273 0.11874451 -0.017009348 -0.14585182 0.021653455 -0.050584957 -0.10950505 0.12314887
0.1008805 -0.012958514 0.1544339 -0.07413668 -0.09042992 -0.06897894 -0.034267943 0.18816213
-0.030956676 0.034212522 0.094818905 0.012119666 0.11303148 -0.09376283 0.09430628 -0.11456399
-0.019400818 -0.056672044 -0.053375263 -0.02262984 -0.050899584 0.05322275 0.014061883 0.07357483
-0.06894477 -0.04901652 0.24570172 -0.038709607 -0.06736021 -0.115682125 0.07574191 0.15274845
0.13671719 -0.0044210157 -0.016521575 0.013684942 0.041706115 0.076431036 -0.08996598 -0.06833283
0.04227054 0.1038366 0.10925205 0.016211936 -0.111504436 0.082318075 0.07023894 0.1096965
0.011362344 0.10156452 0.16545598 -0.2365897 0.005610545 -0.12433174 0.034445174 0.017618403
-0.12648372 0.0067799836 -0.056547 0.19950518 0.09896882 -0.11780208 0.018815562 0.012389749
-0.022857964 0.16086543 -0.06905196 0.18875678 -0.06385778 0.09538625 -0.058758967 0.048192803
0.09376958 0.15450121 -0.10645048 -0.050238907 0.021065263 -0.05900027 -0.05458033 0.11553703
-0.09352154 -0.085693054 -0.05815406 -0.06696361 -0.06515378 -0.0820868 0.08947767 0.00444086
0.02519131 0.11101507 0.057631973 0.078198105 -0.075257674 -0.071732804 0.1386586 0.013093501
-0.06866675 0.0058336207 -0.07186896 0.15732345 -0.05949831 -0.07028149 0.06796111 -0.08927105
0.0074738 0.057474386 -0.05343418 -0.06453984 0.0887562 -0.052549947 0.014687625 0.096375376
-0.054592013 0.037527278 0.15192662 0.03772857 0.120901436 -0.042292833 0.18515079 0.033823792
0.023279106 -0.081632674 -0.12174806 0.02783678 -0.12926726 0.06662236 -0.053915855 -0.11867683
0.03792101 0.077652894 0.0028777446 0.07759996 -0.03660558 -0.0073813493 -0.031930536 -0.0021909345
0.123836875 -0.0461942 0.07243247 -0.118476525 0.08215574 0.07304013 0.17228791 0.113669515
-0.07118217 -0.12924874 -0.0735674 -0.0059253923 0.0702865 0.082650505 0.060710058 -0.08649384

out.bias f4 [4]
00000000: 4174 da3c 5367 b1bd 91d8 f9bc 2e0c ed3d
0.026666762 -0.08662286 -0.030498775 0.11574589
